environment_model_weight/2021_AHU402_envmodel.pth (torch, 68111 bytes, 7 tensors)

weight f4 [128, 37]
0	0x3e5c7fc2	0.2153311
1	0xbe17dba7	-0.14829884
2	0xbdee18ab	-0.11625799
3	0x3b556044	0.00325586
4	0xbeb78bb9	-0.35848787
5	0xbe19ca47	-0.15018569
6	0xbca30bcf	-0.019903092
7	0xbc046af4	-0.00808214
8	0xbe8dc8c2	-0.2769223
9	0xbec31213	-0.38099727
10	0xbe93c574	-0.28861582
11	0xbc15f98f	-0.009153738
12	0x3c0ea8ee	0.008707268
13	0xbc943bc2	-0.018094901
14	0xbd1920e3	-0.03738488
15	0x3a90b449	0.0011040057
16	0x3c81cf85	0.015846023
17	0x3d29c1be	0.041444533
18	0x3d4ddadb	0.050257545
19	0xbb5b2d37	-0.0033443698
20	0x3b77db73	0.003782001
21	0x3e1d8604	0.15383154
22	0x3cc66838	0.024219617
23	0x3cb86e2a	0.022513468
24	0x3b7c9c2e	0.0038545239
25	0x3ca54982	0.020176653
26	0xbd8da941	-0.06917048
27	0xbd838bac	-0.06423125
28	0x3d81c982	0.06337263
29	0x3dea0b6c	0.1142796
30	0x3e897fb6	0.26855248
31	0x3cb59dec	0.02217003
32	0xbcb0fd1e	-0.02160507
33	0x3c56e2ff	0.0131156435
34	0x3cb49ced	0.022047484
35	0x3bc85cb3	0.0061145662
36	0xbc7a7b7a	-0.015288228
37	0x3e438a90	0.19095826
38	0xbe82e6d3	-0.2556673
39	0xbd503def	-0.050840314
40	0xbeb4c73e	-0.3530826
41	0x3f17f47b	0.5935742
42	0x3b3b0b35	0.0028540615
43	0x3d1842e8	0.03717318
44	0xbcb1669a	-0.02165537
45	0xbeaa1bbe	-0.3322429
46	0xbe8cdcdd	-0.27512255
47	0xbe2e8499	-0.1704277
48	0x3bfeed12	0.007779726
49	0xbc763547	-0.015027351
50	0x3cb05e33	0.021529293
51	0xbd99acda	-0.07503672
52	0xbd07392d	-0.03301351
53	0xbbe15ac3	-0.0068772747
54	0xbd7e4705	-0.06207945
55	0xbd3818c7	-0.044945505
56	0xbbf494af	-0.0074640135
57	0x3c40c72a	0.011766234
58	0x3b417241	0.0029517564
59	0xbd1546bd	-0.036444414
60	0xbca720d3	-0.020401394
61	0xbd8530b5	-0.06503431
62	0xbd528fb5	-0.05140658
63	0x3cd57af2	0.026059601
64	0x3ae99daf	0.0017823483
65	0x3e850669	0.25981453
66	0x3e77234b	0.24134557
67	0xbcaf608c	-0.021408342
68	0xbcedbd15	-0.029020825
69	0x3d62aa58	0.055338234
70	0x3d02a7ae	0.031898193
71	0xbd36c12c	-0.044617817
72	0x3d703755	0.05864652
73	0x3ca1c784	0.019748457
74	0x3e7cdb82	0.2469311
75	0x3da4d476	0.08048336
76	0xbf23c79a	-0.6397644
77	0xbe4f861d	-0.20266004
78	0x3e9ca8e7	0.30597612
79	0xbdc3eb0f	-0.09566318
80	0xbd8f5582	-0.06998731
81	0xbe1796d5	-0.14803632
82	0xbe19798a	-0.1498777
83	0xbedc45c3	-0.43021974
84	0xbe9877bd	-0.29778853
85	0x3d829652	0.063763276
86	0xbc83cae3	-0.016087955
87	0x3d8fc74b	0.07020434
88	0x3c611fd8	0.013740502
89	0x3d885b53	0.06658044
90	0xbc1981ec	-0.009369355
91	0xbd0e9e91	-0.03481919
92	0xbd4fe830	-0.05075854
93	0xb9d71f04	-0.00041031104
94	0x3d81a0db	0.06329509
95	0x3d57150e	0.052510314
96	0xbb5c38c4	-0.003360317
97	0xbd5a4c71	-0.053295556
98	0x3c881e89	0.016616123
99	0xbc4de6a7	-0.012567199
100	0xbc939260	-0.018014133
101	0x3c21e6e1	0.009881706
102	0x3dfc470a	0.12318237
103	0x3dfea48b	0.12433728
104	0x3e1cdd91	0.15318896
105	0xbc9f6dbc	-0.019461505
106	0x3e4111d6	0.1885446
107	0x3bfa5a14	0.0076401327
108	0xbc8d9139	-0.017281162
109	0x3cbf5c40	0.023359418
110	0x3cf509cf	0.029911904
111	0x3ee30b68	0.4434464
112	0xbf45aa0f	-0.77212614
113	0xbf22cc11	-0.6359263
114	0xbfa0a5b4	-1.2550569
115	0x3d64969d	0.0558077
116	0xbecab164	-0.39588463
117	0x3c4c5a15	0.012472649
118	0x3ce427c5	0.027850995
119	0xbda5451d	-0.08069823
120	0xbda73c64	-0.081658155
121	0xbe17e4f2	-0.1483343
122	0x3d0dd551	0.034627263
123	0xbbfd4e54	-0.0077302847
124	0xbbb06755	-0.005383412
125	0x3d795d15	0.060879786
126	0x3e41bac7	0.18918906
127	0x3ba88ba8	0.0051436014
128	0x3cae222f	0.021256534
129	0xbe916511	-0.2839742
130	0x3b285151	0.0025683234
131	0xbdbb32ba	-0.09140535
132	0x3bf1653d	0.007366805
133	0xbb0be263	-0.0021344654
134	0xbc593f4d	-0.013259721
135	0x3a661351	0.0008776682
136	0x3c07a217	0.008278391
137	0x3bca3222	0.006170527
138	0x3b4f90e7	0.0031672062
139	0x3c21071b	0.009828354
140	0x3dfe76f7	0.124250345
141	0x3e15d3ab	0.14631526
142	0xbc962f67	-0.01833315
143	0x3daf300b	0.08554085
144	0x3c0a5f0d	0.008445513
145	0xbad95e24	-0.0016583842
146	0x3d2915e9	0.04128066
147	0x3d5202a2	0.051272042
148	0x3e4d280f	0.20034812
149	0xbdb7eb06	-0.08980374
150	0xbdbedc1a	-0.09319325
151	0x3e975555	0.2955729
152	0x3e2278df	0.15866421
153	0xbe47b651	-0.19503142
154	0xbcb30d2f	-0.021856872
155	0x3baec4e0	0.005333528
156	0xbedeb7ee	-0.43499702
157	0xbedf1593	-0.43571147
158	0xbea59495	-0.32339922
159	0x3de8bc4e	0.11364041
160	0x3a9ed963	0.001211923
161	0x3df2a7c2	0.118484035
162	0x3cb3854f	0.021914152
163	0x3d1ab0ca	0.037766255
164	0xbd4c59be	-0.049890272
165	0xbdbb9e44	-0.09161046
166	0xbe67afb2	-0.22625616
167	0xbb1eb0cf	-0.0024214273
168	0xbca1f290	-0.019768983
169	0x3e03f335	0.12885745
170	0xbd379389	-0.044818435
171	0xbd1bee80	-0.03806925
172	0x3cf912f1	0.03040454
173	0xbc13fa03	-0.009031775
174	0xbd7cab09	-0.06168655
175	0x3d077757	0.033072796
176	0x3d397ec9	0.045286927
177	0x3e91ee64	0.2850219
178	0x3db60e3d	0.088894345
179	0xbcab4cd5	-0.02091066
180	0x3d334777	0.043769326
181	0xbd19e392	-0.037570544
182	0x3cbe9731	0.023265453
183	0xbc81d3ca	-0.01584806
184	0x3d868e8d	0.06570158
185	0x3ecd47c2	0.4009381
186	0xbe39f777	-0.18160807
187	0xbe7eb4d2	-0.24873665
188	0xbe2f8597	-0.17140804
189	0xbd677b10	-0.056513846
190	0xbdeb44b5	-0.11487714
191	0xbb2887c1	-0.0025715681
192	0x3c0a9674	0.008458722
193	0xbed8efbe	-0.4237041
194	0xbe9b4016	-0.3032233
195	0xbe9a76e7	-0.3016884
196	0x3dd7f76c	0.10545239
197	0x3c6fbe85	0.014632826
198	0xbc5a346d	-0.013318163
199	0x3ba0fd2f	0.0049129943
200	0xbd19a3a0	-0.03750956
201	0xbc99e9ba	-0.018788207
202	0x3cdcaa4d	0.026936674
203	0x3d7e5bec	0.062099382
204	0x3b32fce8	0.0027311388
205	0xbc027121	-0.007961542
206	0x3dcd5cde	0.10027479
207	0xbb9d3e6f	-0.0047987024
208	0x3b16a064	0.0022983784
209	0xbc93e2a1	-0.018052401
210	0x3c9af978	0.018917784
211	0x3c8bc3c0	0.017061114
212	0x3ccc1293	0.0249112
213	0x3e6215b5	0.22078593
214	0x3e1a3928	0.15060866
215	0x3e7b6af0	0.24552512
216	0xbccfdb4b	-0.025373122
217	0x3e0c40ec	0.1369664
218	0x3ca5e5f8	0.02025126
219	0xbc55b397	-0.013043306
220	0x3d56e869	0.052467737
221	0xbc626164	-0.013817165
222	0x3ee11cef	0.43967387
223	0xbe0d1448	-0.13777268
224	0xbeae0247	-0.33986112
225	0x3e75f385	0.24018677
226	0xbd78221c	-0.060579404
227	0xbe326a00	-0.17423248
228	0xbdfcf410	-0.12351239
229	0xbe08a809	-0.1334535
230	0xbeafada8	-0.34312177
231	0xbeaa2a53	-0.33235416
232	0xbef64b76	-0.48104447
233	0x3c1bce8e	0.009509696
234	0xbd82917c	-0.06375405
235	0xbe09d4db	-0.13460104
236	0x3d88fb43	0.06688549
237	0xbcaee00c	-0.021347068
238	0x3cb92be4	0.022603936
239	0x3d7eb442	0.062183626
240	0x3c9471ea	0.018120725
241	0xbbdd0880	-0.006745398
242	0x3d859ad3	0.06523671
243	0x3d102994	0.035195902
244	0x3d15367a	0.036428906
245	0x3cfb61c5	0.030686269
246	0x3caf7562	0.021418277
247	0x3c14f146	0.009090727
248	0xbb6afd7b	-0.0035856653
249	0xbb943bf5	-0.004523749
250	0x3b622c95	0.0034511436
251	0x3e5c960f	0.21541618
252	0x3d19ad15	0.03751858
253	0xbb5af2be	-0.0033408846
254	0x3e12ae7b	0.14324372
255	0x3aecb57e	0.001805946

bias f4 [128]
0	0x3f90846b	1.1290411
1	0x3f14f6e4	0.58189225
2	0x3fa0c5a2	1.2560313
3	0x3edc26ea	0.4299844
4	0xbed47fd4	-0.41503775
5	0x3f8d2b6c	1.1028876
6	0x3f717d7f	0.94332117
7	0x3f26d544	0.6516917
8	0x3f53ca12	0.8273021
9	0x3f3853ef	0.7200307
10	0x3feded50	1.8588047
11	0x3f7b9965	0.98280936
12	0xbe3c96ef	-0.18416952
13	0x3fb8b979	1.4431602
14	0xbe9601a5	-0.2929813
15	0x3ecbb0fc	0.39783466
16	0xbf8246f6	-1.0177906
17	0x3fd1d6d6	1.6393688
18	0xbf7ecf42	-0.99535
19	0x3fcef032	1.6167052
20	0xbfc60234	-1.5469422
21	0x3f81786f	1.0114878
22	0xbe8952a2	-0.26820856
23	0x3f22d268	0.63602304
24	0x3f8a5f14	1.0810266
25	0x3f49b9b1	0.7879897
26	0xbfcd5d27	-1.6044053
27	0x3f656c19	0.8961807
28	0xbfcb2528	-1.5870714
29	0x3f1faa7c	0.62369514
30	0x3e826cf0	0.25473738
31	0xbfaf9a6a	-1.3718998
32	0x3e9d5b3f	0.30733678
33	0x3f3defd2	0.7419406
34	0xbec0e386	-0.37673587
35	0x3fb5a788	1.4191751
36	0x3e87a1b4	0.26490557
37	0x3f9ec9f3	1.240538
38	0xbf645a9b	-0.8920075
39	0xbf78a04f	-0.9711961
40	0xbfc98566	-1.5743835
41	0x3f8909fd	1.0706173
42	0xbc02be63	-0.007979962
43	0xbe5a7514	-0.21333724
44	0x3ee4ad58	0.446635
45	0x3f67729a	0.90409243
46	0x3f1aa2a5	0.60404426
47	0x3f644504	0.8916781
48	0x3f71fab8	0.9452319
49	0x3db049cb	0.08607825
50	0xbe1a2db9	-0.15056504
51	0x3f86664c	1.0499969
52	0xbfb8df8a	-1.4443219
53	0x3f851842	1.0398028
54	0x3f83ddfb	1.0302118
55	0x3f80010b	1.0000318
56	0xbfc06ace	-1.5032594
57	0x3ee75886	0.45184726
58	0x3fad9baa	1.356313
59	0x3f838417	1.0274686
60	0x3f1fea94	0.6246731
61	0x3f8c3423	1.0953411
62	0x3f5e9a4a	0.86954176
63	0x3f8ba015	1.0908228
64	0x3efed9d8	0.49775577
65	0x3dcdeac8	0.100545466
66	0x3e6aaf46	0.22918424
67	0xbf0bc26a	-0.5459353
68	0x3f58d508	0.8470006
69	0xbf34c0b9	-0.7060657
70	0x3efcaf90	0.49352694
71	0x3f51ad7c	0.8190534
72	0xbf778103	-0.9668123
73	0x3eb3d926	0.3512661
74	0xbfd253a3	-1.6431774
75	0x3f6008cc	0.8751342
76	0x3e9728a1	0.29523185
77	0x3fb697c5	1.4265066
78	0x3f957b80	1.1678314
79	0xbe52e34b	-0.20594518
80	0xbfc7c84e	-1.5608003
81	0x3fca2e8a	1.5795453
82	0xbdf6d390	-0.12052071
83	0x3f6b5453	0.91925544
84	0xbe040d2b	-0.12895648
85	0x3e68f18a	0.2274839
86	0x3f2c862f	0.6739225
87	0x3f9b83b5	1.2149569
88	0xbe9c08a7	-0.3047535
89	0x3f1a7b92	0.60344803
90	0x3e8e6335	0.27810064
91	0x3f539743	0.8265268
92	0xbfbecae8	-1.4905672
93	0x3f97ef91	1.1869985
94	0x3f648aae	0.8927411
95	0xbfea5bfa	-1.8309319
96	0x3f8eb550	1.1149082
97	0xbf1ea9d2	-0.61977875
98	0x3fd94a06	1.6975715
99	0xbfbed7ff	-1.4909667
100	0xbfc14db4	-1.5101838
101	0x3f511bb6	0.8168291
102	0xbe516ff9	-0.2045287
103	0x3f8ab600	1.0836792
104	0x3dca2f9d	0.09872363
105	0xbde7b8cc	-0.11314544
106	0x3f2b2865	0.6685851
107	0x3da7100a	0.08157356
108	0x3f85fcde	1.0467794
109	0x3f26db01	0.65177923
110	0xbfa31181	-1.2739717
111	0x3f88c28a	1.0684369
112	0x3fa13508	1.2594309
113	0xbec6d99a	-0.38837892
114	0xbeb0ea79	-0.34553888
115	0xbea9b24b	-0.3314384
116	0xbfad27de	-1.3527792
117	0xbfd1cdfd	-1.6390988
118	0x3fa0145d	1.2506214
119	0xbfa26811	-1.2688009
120	0xbf34293a	-0.70375407
121	0xbf5e3e09	-0.8681341
122	0xbe9ce552	-0.30643708
123	0x3e91f773	0.285091
124	0xbed0c412	-0.4077459
125	0x3f80bb45	1.005715
126	0x3fa02967	1.2512635
127	0xbfabaf30	-1.3412838

weight f4 [64, 128]
0	0xbc4330a3	-0.011913451
1	0xbc0a7b66	-0.008452272
2	0xbbb7f642	-0.005614073
3	0xbd64af83	-0.055831444
4	0x3cfee27f	0.031113861
5	0x3d16dc34	0.036831096
6	0x3d5af3cf	0.05345517
7	0xbd3d8dd5	-0.04627784
8	0xbdbe7ea3	-0.09301498
9	0xbdfb01d2	-0.122562066
10	0xbe2e3115	-0.17010911
11	0xbd19d698	-0.03755817
12	0xbc6fd635	-0.014638473
13	0xbd2392f2	-0.03993506
14	0x3de57d6d	0.11205564
15	0x3d239e0c	0.039945647
16	0x3d4a52bf	0.04939532
17	0xbdd773e7	-0.105201535
18	0x3d112473	0.03543515
19	0xbda35f60	-0.07977176
20	0x3ceb6434	0.028734304
21	0xbe085d59	-0.1331686
22	0xbd5d37e2	-0.054008372
23	0x3c84b793	0.016200816
24	0x3df538c6	0.11973719
25	0xbc6aa7b9	-0.014322215
26	0xbc3ec849	-0.011644431
27	0xbd16cfb6	-0.036819182
28	0xbd265d6b	-0.040616434
29	0x3be93b62	0.0071176747
30	0x3af1c15e	0.0018444469
31	0xbca5da55	-0.02024571
32	0xbd76c2ec	-0.060244486
33	0x3dc0e81e	0.09419273
34	0xbc081331	-0.008305357
35	0xbca94c15	-0.020666162
36	0xbdb6a032	-0.089172736
37	0xbcb7242f	-0.02235612
38	0xbc9023be	-0.017595168
39	0x3db3f8b6	0.08787672
40	0x3d84fc0a	0.06493385
41	0x3d5c7d00	0.053830147
42	0xbd64d56d	-0.0558676
43	0xbcd6f2c7	-0.026238812
44	0x3c7f5f4c	0.015586685
45	0xbc98fd03	-0.018675333
46	0x3d751219	0.059831712
47	0xbd15081b	-0.036384683
48	0xbd3c5fef	-0.045989927
49	0xbce542dd	-0.027985984
50	0x3d859450	0.06522429
51	0xbd076c81	-0.03306246
52	0xbdab8d81	-0.08376599
53	0xbd2ceb33	-0.04221649
54	0x3cb644d5	0.022249619
55	0x3d160cf5	0.03663345
56	0xbc7ef3e2	-0.015561076
57	0xbd210662	-0.039312728
58	0xbd4bff90	-0.04980427
59	0xbd538a63	-0.051645648
60	0x3d78c58b	0.060735267
61	0xbcdb8796	-0.02679805
62	0x3d36e156	0.04464849
63	0xbda04856	-0.07826297
64	0x3c767ac0	0.015043914
65	0xbcf47233	-0.02983961
66	0xbd1eac3e	-0.03873848
67	0xbd368f39	-0.04457018
68	0xbd89c011	-0.06726087
69	0xbc9e2591	-0.019305022
70	0x3d8dfbf8	0.06932825
71	0xbd494c04	-0.04914476
72	0x3d5bcb1c	0.053660497
73	0xbd087f7e	-0.03332471
74	0xbc10c19c	-0.008835223
75	0xbb0d775c	-0.0021586036
76	0x3d874217	0.066044025
77	0xbd5c20a5	-0.05374207
78	0xbc7c5573	-0.015401232
79	0xbd3a01d9	-0.04541192
80	0xbb1e06e3	-0.0024112992
81	0xbe10a080	-0.14123726
82	0x3cead250	0.028664738
83	0xbc9fb8a6	-0.019497227
84	0x3d0e9089	0.03480581
85	0x3d8910ee	0.06692682
86	0x3cd6f48a	0.026239652
87	0xbd87aa26	-0.0662425
88	0xbd0083a9	-0.03137556
89	0x3d01e569	0.031712923
90	0xbd13121f	-0.035905953
91	0x3b69b1e2	0.0035659005
92	0x3bb28069	0.0054474366
93	0xbd38c805	-0.04511263
94	0xbd48c210	-0.049013197
95	0xbca16f82	-0.019706491
96	0xbdb4d4e9	-0.08829672
97	0x3d565e3d	0.052335966
98	0xbd036ee5	-0.03208818
99	0xbc288040	-0.010284483
100	0x3e02f1b2	0.12787512
101	0xbdee1abc	-0.11626193
102	0xbbc937ea	-0.0061406987
103	0x3d63396e	0.05547469
104	0x3be8d25f	0.0071051563
105	0xbda4e5e4	-0.08051661
106	0xbb3b8e96	-0.0028618923
107	0xbdb40301	-0.087896354
108	0x3c0553cd	0.008137655
109	0x3cd7d336	0.02634583
110	0xbca27878	-0.019832835
111	0xbda9e838	-0.08296245
112	0xbdc17030	-0.09445226
113	0xbcc5eaeb	-0.02415987
114	0x3d676476	0.05649229
115	0xbc804a59	-0.015660452
116	0x3d831ae8	0.06401616
117	0xbce5879f	-0.02801877
118	0xbd0d3057	-0.03446993
119	0xbc296fc8	-0.010341592
120	0x3d60956c	0.05483
121	0x3d2276a2	0.03966392
122	0xbcadbfe1	-0.021209659
123	0x3c80ce2b	0.015723309
124	0x3d26fcb5	0.040768344
125	0xbd4d8873	-0.050178956
126	0x3b321d0b	0.0027177955
127	0x3d61fe7b	0.055174332
128	0xbc723e00	-0.01478529
129	0xbdc15e2e	-0.094417915
130	0x3d281480	0.041035175
131	0xbbafd374	-0.0053657833
132	0xbcdb458b	-0.02676656
133	0x3d199d8a	0.037503757
134	0x3db01d7f	0.08599376
135	0xbcf75e1c	-0.030196242
136	0xbd279d54	-0.040921524
137	0x3cb54b05	0.022130499
138	0xbe2c3c0b	-0.1681978
139	0xbcb6716f	-0.022270886
140	0xbbbec790	-0.0058221295
141	0x3c54fcf3	0.012999761
142	0xbd3cda8c	-0.04610686
143	0x3c8a946f	0.016916482
144	0xbd27f763	-0.04100741
145	0xbdfdf77d	-0.1240072
146	0xbc44ba03	-0.012007239
147	0xbde04285	-0.109501876
148	0x3c1789ea	0.00924919
149	0xbd3a82f7	-0.045535054
150	0xbe184c3b	-0.1487283
151	0xbe19e283	-0.15027814
152	0x3d177d5c	0.036984786
153	0x3d5229a0	0.051309228
154	0x3db77a3f	0.089588635
155	0xbd6bfcdc	-0.057614192
156	0x3dd1f7a6	0.10252313
157	0xbdc2472d	-0.09486232
158	0xbbfc1649	-0.0076930863
159	0x3d7aad46	0.061200403
160	0xbca62357	-0.020280523
161	0xbdd737b8	-0.105086744
162	0xbdbdad88	-0.09261614
163	0xbd5ea881	-0.054359917
164	0xbd97dd54	-0.07415262
165	0x3cd98321	0.026551785
166	0xbb826477	-0.0039792615
167	0xbc4bf3b7	-0.012448243
168	0xbd8c1c48	-0.06841332
169	0xbd3fb9e8	-0.046808153
170	0xbc8a8419	-0.016908692
171	0xbd5725bf	-0.05252623
172	0x3d76a757	0.06021818
173	0xbd3239f0	-0.043512285
174	0x3cebc3d5	0.028779903
175	0x3c75e3c7	0.01500792
176	0xb9edacd5	-0.00045332932
177	0xbcf8adfe	-0.030356403
178	0x3c573c45	0.013136928
179	0x3ce5210e	0.027969863
180	0x3d9a9dff	0.075496666
181	0xbd53c94a	-0.051705636
182	0x3d2efa95	0.042719442
183	0xbe05a53d	-0.13051315
184	0x3cb6525c	0.022256069
185	0xbdea7ff2	-0.11450185
186	0xbc568456	-0.013093075
187	0x3ba2d29f	0.0049689556
188	0xbc96e95f	-0.018421827
189	0xbd699327	-0.0570251
190	0xbda1a3bb	-0.07892557
191	0x3d88b869	0.066757984
192	0x3b9648d0	0.0045863166
193	0x3ce13008	0.027488723
194	0xbcb89e88	-0.022536531
195	0xbca960bc	-0.02067601
196	0xbc830dc1	-0.01599777
197	0xbd2130ae	-0.039353065
198	0xbd798a6c	-0.060923025
199	0xbddbae2a	-0.107265785
200	0xbe8d2748	-0.27569032
201	0xbd581f63	-0.052764308
202	0x3d255165	0.040360827
203	0xbe0f5ac2	-0.13999465
204	0xbb70aaa8	-0.0036722813
205	0xbd9be29a	-0.0761158
206	0x3a721298	0.0009234338
207	0xbceb67c1	-0.028735997
208	0xbba28f87	-0.0049609574
209	0xbd5876cb	-0.052847665
210	0x3db637ad	0.08897338
211	0x3d04c4ee	0.03241437
212	0xbdbf963d	-0.093548276
213	0x3d6bd61a	0.05757723
214	0xbcf9800f	-0.03045657
215	0x3dabf560	0.08396411
216	0xbd58250b	-0.052769702
217	0xbc8548d3	-0.016270077
218	0xbdda2d2b	-0.10653146
219	0x3bcbfaa5	0.0062249475
220	0x3c4081a1	0.011749656
221	0xbcdbdfe6	-0.026840162
222	0xbd614763	-0.05499972
223	0x3daa6932	0.08320846
224	0xbc21f2e5	-0.009884571
225	0x3edfc69b	0.4370621
226	0x3c8b61d2	0.017014418
227	0x3af08212	0.0018349311
228	0xbdbd625a	-0.09247275
229	0x3c590844	0.0132466
230	0xbdffd6d5	-0.12492148
231	0x3c9b5e1d	0.018965775
232	0x3dc7fd59	0.09765119
233	0x3c366507	0.011132485
234	0xbd2a7ee2	-0.04162491
235	0xbe41ec1c	-0.18937725
236	0xbc7eac76	-0.015544048
237	0xbd587047	-0.05284145
238	0xbe071ccb	-0.13194577
239	0xbcc306e4	-0.023806997
240	0xbc86bbb6	-0.01644693
241	0xbcbb7e7e	-0.022887465
242	0xbda06e77	-0.078335695
243	0x3cea0a85	0.02856947
244	0x3cff9c23	0.031202381
245	0xbb580dd2	-0.0032967222
246	0x3d84c87e	0.06483553
247	0xbcdb4f5a	-0.026771236
248	0xbcad041c	-0.021120124
249	0xbe2b91b2	-0.16754797
250	0xbcd8d2f8	-0.026467785
251	0xbe00baf2	-0.12571314
252	0xbe330baf	-0.17484926
253	0x3cfc6ad0	0.03081265
254	0xbd4c225d	-0.04983746
255	0xbcc0318a	-0.023461122

bias f4 [64]
0	0x3f805ea4	1.0028882
1	0x3f4f5504	0.809891
2	0x3f60aba3	0.87761897
3	0xbfa0ba2d	-1.2556816
4	0xbe904eee	-0.2818522
5	0x3f82d4bf	1.0221175
6	0x3f482077	0.7817454
7	0xbf75c2e4	-0.96000504
8	0x3f834766	1.0256164
9	0xbf9e7a96	-1.238116
10	0x3fdf9cc0	1.7469711
11	0xbf56bca6	-0.83881605
12	0xbf9a90c4	-1.2075429
13	0xbfd97278	-1.6988058
14	0x3f598a7e	0.8497695
15	0xbfa52158	-1.2900801
16	0xbf3fcc1e	-0.74920833
17	0xbfa2cfcf	-1.2719668
18	0x3f5ed8d8	0.8704963
19	0x3f258c3f	0.64667124
20	0x3f6a82ff	0.91606134
21	0x3e07a115	0.13245042
22	0x3f9bfc13	1.2186302
23	0xbfb31602	-1.3991091
24	0x3f9f601a	1.2451203
25	0x3f938efa	1.1528008
26	0x3f3a0429	0.726626
27	0xbf082cca	-0.5319334
28	0x3f963432	1.1734679
29	0x3f4ac9f5	0.7921441
30	0x3f616c07	0.8805546
31	0x3f856395	1.0421015
32	0x3f7f6986	0.9977039
33	0x3f69c274	0.91312337
34	0xbf37703c	-0.7165563
35	0xbf7a7fab	-0.97851056
36	0x3f96fd97	1.179614
37	0xbe886eba	-0.26646978
38	0x3fe9064b	1.8205045
39	0xbf00843f	-0.5020179
40	0xbf58f852	-0.84753907
41	0x3f7e1768	0.99254465
42	0x3f38b18f	0.7214593
43	0xbf90ce21	-1.1312906
44	0xbf78a24d	-0.9712265
45	0x3f339ee8	0.70164347
46	0x3f80036d	1.0001045
47	0x3f405ec5	0.75144607
48	0x3f679d75	0.90474635
49	0x3f34a678	0.7056651
50	0xbfa2d5e7	-1.2721528
51	0x3f8d5717	1.1042203
52	0x3f9079af	1.1287135
53	0xbfad4e99	-1.3539611
54	0xbf7dfe55	-0.99216205
55	0x3f8d05b6	1.1017368
56	0x3f4b83ad	0.79497796
57	0xbf47e838	-0.7808871
58	0x3f45a828	0.7720971
59	0xbc86a439	-0.01643573
60	0x3fa2cc56	1.2718608
61	0x3f6d260d	0.92636186
62	0x3ce147ce	0.02750006
63	0xbf869081	-1.0512849

weight f4 [32, 70, 1]
0	0x3d0c3d68	0.03423825
1	0xbf95a6cc	-1.1691527
2	0xbf9d3c16	-1.2283962
3	0xbf86b055	-1.0522562
4	0xbf8500ca	-1.0390866
5	0xbf8e27c4	-1.1105886
6	0x3ad71c1f	0.0016411579
7	0xbdb4c50b	-0.088266455
8	0xbd22e80c	-0.03977208
9	0x3c727672	0.014798747
10	0x3d916b39	0.07100529
11	0xbc4eda75	-0.012625326
12	0xbd91f18c	-0.071261495
13	0xbd9eabef	-0.077476375
14	0x3d43947c	0.047749028
15	0x3ce1c114	0.027557887
16	0xbe189ac1	-0.14902784
17	0xbe1db392	-0.15400532
18	0x3da83ce6	0.082147405
19	0x3daa2707	0.08308225
20	0x3d291c89	0.04128698
21	0xbd1e69d4	-0.038675144
22	0xbdb80a4e	-0.089863405
23	0xbdd76e9b	-0.10519143
24	0xbcff80d1	-0.031189354
25	0xbdb6911e	-0.08914398
26	0xbd1f4ba5	-0.0388905
27	0x3be0f584	0.0068652052
28	0xbd61940d	-0.055072833
29	0xbd9405a4	-0.07227638
30	0xbcb2383b	-0.021755328
31	0x3b743ec2	0.0037268852
32	0xbd833003	-0.06405642
33	0x3c4c7704	0.012479547
34	0xbdc5c64a	-0.09656961
35	0x3da0ac87	0.07845407
36	0xbdbf2473	-0.09333124
37	0xbdcc29e4	-0.099689275
38	0x3c62b9db	0.013838257
39	0x3e0da0ce	0.13830873
40	0xbdbd5715	-0.09245125
41	0xbdc410e5	-0.09573535
42	0xbd60c035	-0.054870803
43	0x3da9a302	0.082830444
44	0x3c8d9ca8	0.017286614
45	0xbbb21bda	-0.005435449
46	0xbc806caf	-0.015676824
47	0x3d624e20	0.055250287
48	0xbddd13c7	-0.10794788
49	0xbb8d3404	-0.0043091793
50	0x3d5cf72e	0.053946666
51	0xbca9b066	-0.020713996
52	0x3d1e029e	0.038576715
53	0xbd6b5b5c	-0.057460174
54	0xbd436199	-0.0477005
55	0xbdd2b4c1	-0.10288382
56	0x3da07260	0.07834315
57	0xbd513e93	-0.051085066
58	0x3cbb41f8	0.022858605
59	0x3d106861	0.035255793
60	0xbd92eaa4	-0.071736604
61	0xbc848d6f	-0.016180722
62	0x3d578bf3	0.0526237
63	0x3da23704	0.0792065
64	0x3d5a1540	0.05324292
65	0xbda0c3f6	-0.078498766
66	0x3dba1ca8	0.09087497
67	0x3d37130e	0.044695906
68	0x3d45ba90	0.048273623
69	0x3b1d1c85	0.0023973298
70	0x3d91af27	0.07113486
71	0xbfa9b4f0	-1.3258343
72	0xbf8e42bb	-1.1114115
73	0xbfa4939d	-1.2857548
74	0xbfa3fe8b	-1.2812055
75	0xbfa14011	-1.2597677
76	0x3e08aa39	0.13346185
77	0x3c0e9c6a	0.008704284
78	0xbd7ad896	-0.06124171
79	0x3d950fd0	0.072784066
80	0xbb0820b1	-0.0020771439
81	0xbbdfa489	-0.006825034
82	0xbd8b5f09	-0.06805236
83	0xbdfc1538	-0.12308735
84	0xbde24e0d	-0.11050043
85	0xbc17eefd	-0.009273288
86	0xbd91a15e	-0.071108565
87	0x3d57cc55	0.0526851
88	0x3ce1a6cd	0.027545357
89	0xbdf765fb	-0.12079998
90	0xbd097a33	-0.033563804
91	0xbc547f84	-0.012969855
92	0x3d92c09d	0.07165644
93	0xbacb6141	-0.0015516655
94	0x3ce55a57	0.027997179
95	0x3e06d035	0.13165362
96	0x3d2d27c6	0.04227426
97	0xbd0d5f6d	-0.034514833
98	0xbc8304f0	-0.015993565
99	0x3c76427b	0.015030499
100	0x3e0c3eb1	0.1369579
101	0x3d176ca6	0.03696885
102	0xbd869de0	-0.06573081
103	0xbd33b41c	-0.043872938
104	0x3c07669f	0.008264213
105	0xbd21c0e7	-0.039490607
106	0x3de98ae9	0.11403448
107	0xbc37668b	-0.011193882
108	0xbda58da2	-0.08083655
109	0x3cd36aec	0.02580782
110	0x3d398b49	0.04529885
111	0xbcfc77a4	-0.030818768
112	0xbd67a07b	-0.05654953
113	0x3d868689	0.06568629
114	0x3d4b5d8c	0.04964976
115	0xbdd4a3f4	-0.10382834
116	0xbcb26c83	-0.021780258
117	0xbde77bf1	-0.11302937
118	0x3a9ae650	0.0011817906
119	0x3def7ac4	0.116933376
120	0xbdaac241	-0.08337832
121	0x3da0a79f	0.07844471
122	0xbcc30a99	-0.023808764
123	0x3d1a347c	0.03764771
124	0x3d8e68b3	0.069535635
125	0x3c9b7cb5	0.018980363
126	0xbd35d272	-0.04439015
127	0x3dc2323c	0.09482238
128	0xbdc8d84d	-0.09806881
129	0x3d501213	0.050798487
130	0xbdafeff6	-0.08590691
131	0xbd1612e5	-0.036639113
132	0x38a9a54e	8.0893384e-05
133	0xbd91bcfb	-0.07116123
134	0xbd944435	-0.07239572
135	0x3d535c24	0.051601544
136	0xbd5b1ecd	-0.05349617
137	0x3d9c5ec3	0.07635262
138	0x3d7bd281	0.06148005
139	0xbd07ba71	-0.03313679
140	0xbe969ff9	-0.29418924
141	0xbf828bdc	-1.0198932
142	0xbf8341a0	-1.0254402
143	0xbf884544	-1.0646138
144	0xbf87d8c5	-1.0613028
145	0xbf28e486	-0.659737
146	0xbb0fa948	-0.0021920968
147	0x3e330f4a	0.17486301
148	0x3cd199c8	0.025586024
149	0xbd90fea3	-0.07079818
150	0xbdfa8c58	-0.122338
151	0x3c96d7e2	0.018413488
152	0x3c26ce88	0.010181077
153	0xbc810503	-0.01574946
154	0x3d5de234	0.054170802
155	0xbe2f5f81	-0.17126276
156	0x3e1d7875	0.15377982
157	0x3d857f76	0.06518452
158	0xbd16691b	-0.03672133
159	0xbe743ca4	-0.23851258
160	0x3c78f9d5	0.015196283
161	0xbe21780c	-0.1576845
162	0xbdd90421	-0.10596491
163	0xbe2821fa	-0.16419211
164	0x3cf10233	0.029419994
165	0x3cba8ea2	0.02277309
166	0x3c6d0fb6	0.014469078
167	0x3d23c614	0.039983824
168	0x3d59a388	0.05313447
169	0xbe4d0c00	-0.20024109
170	0xbd1fe41f	-0.039035913
171	0x3e015edb	0.1263384
172	0x381749f4	3.607008e-05
173	0xbcac5e1b	-0.021040967
174	0x3cdf8df3	0.027289366
175	0x3bbd5919	0.0057784435
176	0x3a90f860	0.001106035
177	0xbb32e2e3	-0.002729588
178	0x3c825949	0.015911715
179	0xbdc307f8	-0.09523004
180	0xbd26ca48	-0.040720254
181	0xbdeaa61d	-0.11457465
182	0x3a9a488e	0.001177089
183	0x3e1297dc	0.14315742
184	0x3e937098	0.2879684
185	0xbcceace3	-0.025228923
186	0xbe185c64	-0.14878994
187	0x3db9ee61	0.0907867
188	0x3d981623	0.07426097
189	0xbddeb7c2	-0.10874893
190	0xbd592576	-0.05301424
191	0x3ba741dc	0.0051042866
192	0x3c8babe1	0.017049732
193	0x3c6994ad	0.0142566385
194	0xbc92dcaf	-0.017927496
195	0x3cae9022	0.021308962
196	0xbe174389	-0.14771856
197	0x3de9a277	0.11407941
198	0x3dd367e5	0.10322551
199	0xbe26cabd	-0.16288276
200	0xbc1bd407	-0.0095110005
201	0x3da7e4b5	0.08197919
202	0x3c9647ef	0.018344847
203	0xbd8c4b70	-0.06850326
204	0x3d9c16af	0.07621514
205	0x3e032c2a	0.12809816
206	0x3cc25562	0.023722354
207	0x3d2ff881	0.0429616
208	0xbbb5d395	-0.005548904
209	0xbcf6ef0b	-0.030143281
210	0x3e36e873	0.1786211
211	0x3f9dcd25	1.232823
212	0x3fa60aab	1.2972006
213	0x3f94691b	1.1594576
214	0x3f9631f9	1.1734
215	0x3fa0486c	1.2522101
216	0xbd2bde26	-0.041959904
217	0xbbf223cd	-0.0073895217
218	0x3d1887a0	0.037238717
219	0x3ce4268d	0.027850414
220	0xbdd58069	-0.10424883
221	0x3d36235d	0.04446732
222	0x3bb07c6f	0.0053859274
223	0x3ccc7308	0.024957195
224	0x3d90bc53	0.0706717
225	0xbd55abbd	-0.052165736
226	0xbd8fb421	-0.07016779
227	0x3c8841c8	0.01663293
228	0xbda87564	-0.082255155
229	0xbe0366dc	-0.12832206
230	0xbd5aae16	-0.053388678
231	0x3d4ea21a	0.05044756
232	0xbcaf3c50	-0.021391064
233	0x3c52295d	0.012827245
234	0xbdbaeab6	-0.09126799
235	0x3cea7898	0.028621957
236	0xbe10bc41	-0.14134313
237	0xbc05cb16	-0.008166095
238	0x3dee808c	0.11645612
239	0xbda2342d	-0.07920108
240	0x3dc53bdf	0.0963056
241	0x3d3a5502	0.045491226
242	0xbd852738	-0.06501621
243	0xbccce506	-0.02501155
244	0xbcafe0dd	-0.021469528
245	0x3c9065f0	0.017626733
246	0x3d5ac2e4	0.05340852
247	0x3de4418c	0.111453146
248	0xbdbcd4a0	-0.092202425
249	0x3d32adc3	0.043622743
250	0x3cf596e1	0.029979171
251	0xbd94b5f6	-0.07261269
252	0xbdd7e698	-0.10542029
253	0xbb929e17	-0.004474412
254	0x3cd38262	0.025819007
255	0xbdd96d07	-0.106164984

bias f4 [32]
0	0xbf8b0195	-1.0859858
1	0xbfafb875	-1.3728167
2	0xbf5fdedd	-0.8744944
3	0x3fac435b	1.3458055
4	0x3f91f104	1.1401677
5	0x3fab6e59	1.339305
6	0xbf8fb759	-1.1227828
7	0x3fade291	1.3584768
8	0xbf94e2c0	-1.1631699
9	0x3f9dc5e5	1.2326018
10	0x3fabd7c5	1.3425223
11	0x3fbdbe9d	1.4823796
12	0x3fa0f928	1.2576036
13	0x3f9bcaa9	1.2171222
14	0xbf974e98	-1.182086
15	0xbfc9ca8e	-1.576494
16	0x3fbf36e0	1.4938622
17	0xbf8ea2dc	-1.1143451
18	0x3f92487f	1.1428374
19	0xbf787e30	-0.97067547
20	0x3fa43929	1.2829944
21	0xbfd187ad	-1.636953
22	0xbfad255a	-1.3527024
23	0x3facc103	1.3496403
24	0xbf846ed4	-1.0346322
25	0xbf919939	-1.1374885
26	0x3f971063	1.1801876
27	0xbf7bd8e8	-0.9837785
28	0xbfa449ed	-1.283506
29	0x3fa4341a	1.28284
30	0x3fa4785c	1.2849231
31	0xbf9c718f	-1.2222155

weight f4 [1, 32, 1]
0	0xbeac0f26	-0.33605307
1	0xbefc88bf	-0.4932308
2	0xbfb09a7b	-1.3797144
3	0x3f08ca21	0.53433424
4	0x3ebcb0ed	0.36853734
5	0x3ea0a6a4	0.31377137
6	0xbf0bbf8c	-0.5458915
7	0x3f0d1c48	0.5512128
8	0xbec2b9be	-0.38032335
9	0x3ed2a14b	0.41138682
10	0x3eb40f41	0.35167888
11	0x3eb5fec7	0.35545942
12	0x3ecb9640	0.3976307
13	0x3eb1e5b7	0.3474557
14	0xbef93cb9	-0.4867914
15	0xbe85f923	-0.2616664
16	0x3ea7a2cd	0.32741395
17	0xbef27ed7	-0.47362396
18	0x3efa1784	0.48846066
19	0xbe8ca6a6	-0.27470893
20	0x3f5d980e	0.8656014
21	0xbea5d5a6	-0.32389563
22	0xbf17d2b8	-0.59305906
23	0x3ee869cf	0.45393226
24	0xbf7bd49f	-0.9837131
25	0xbeb585ef	-0.35453746
26	0x3eb77e32	0.35838467
27	0xbf01915b	-0.5061242
28	0xbf4eb13e	-0.807392
29	0x3ed11338	0.40834975
30	0x3eeab0de	0.45838064
31	0xbf148936	-0.5802187
