environment_model_weight/2021_AHU401_envmodel.pth (torch, 68111 bytes, 7 tensors)

weight f4 [128, 37]
000000 d8 3b 18 3e 1e cf ac be 4c d3 0d be d0 28 49 3e
       0.14866579 -0.33751768 -0.13850135 0.19644475
000010 bb bd 4c 3b 66 ba 6f be 84 7e c8 bc a1 cd 15 be
       0.0031241018 -0.23410949 -0.02447439 -0.14629222
000020 79 6f e8 be 54 1d 00 be 17 13 07 be d0 92 9a 3e
       -0.45397547 -0.12511188 -0.13190876 0.30190134
000030 f3 b0 a3 3d c2 a4 1a 3d 9b d6 a2 3c 53 67 b9 3d
       0.07992735 0.03775478 0.019877722 0.09052911
000040 82 57 71 be 39 fd 21 bd 15 79 93 bd 00 3c 18 bc
       -0.23568538 -0.039548133 -0.07200829 -0.009291649
000050 51 11 27 be 17 eb 95 be 94 6b ed bc 57 54 a6 bc
       -0.163152 -0.29280922 -0.028981961 -0.020303888
000060 57 ef 5c 3b 10 e0 00 bd c3 f6 c2 bc a5 17 92 3c
       0.0033711994 -0.031463683 -0.023799306 0.01783354
000070 f6 b2 a8 3e d2 04 32 3b ab 03 10 bd 95 d1 be 3d
       0.32949036 0.0027163518 -0.035159748 0.09317318
000080 38 d1 c1 3e 9e 82 a9 3d 0e 95 7a bd df 16 d3 3c
       0.37854934 0.082768664 -0.061177306 0.025767742
000090 8f ce 07 bd 58 8b 3d 3d c4 82 c5 3e a5 fb aa 3e
       -0.033155974 0.046275467 0.3857633 0.33395115
0000a0 c8 7f 6e 3e e5 23 b8 3d 73 bd b1 3e d6 f1 16 be
       0.23290932 0.08991221 0.3471485 -0.1474069
0000b0 78 77 5c bd d8 85 40 bd ab 8e f9 bc ea 68 d5 3c
       -0.05382487 -0.047002643 -0.030463537 0.026051003
0000c0 66 6d 32 be 31 f8 fb bd a8 cb 40 bd 17 ea 13 bd
       -0.17424545 -0.12303198 -0.04706922 -0.036111917
0000d0 a1 cf 92 be c6 ee 6e bd c9 03 e5 3d a1 c1 19 bc
       -0.28674033 -0.05833318 0.111823626 -0.009384544
0000e0 7d 81 57 bc e7 7c bd 3d a9 84 4c 3e e4 08 6b bd
       -0.013153431 0.09252339 0.19972481 -0.057381526
0000f0 c0 e6 e6 bb 9e 89 cc 3b 2f ae cc bc 42 47 76 bd
       -0.0070465505 0.006241991 -0.024985401 -0.06012655
000100 e2 1a da bd 74 7f c3 be 0c 9b b2 bd fe 34 04 3c
       -0.10649659 -0.38183177 -0.08720979 0.008069275
000110 f1 a6 49 be ec 30 39 bd 58 44 d9 3c 88 8e 10 3d
       -0.1969259 -0.04521267 0.026521847 0.03529218
000120 ec da b0 bd 87 5d 57 bd c0 fa b4 bd ec 5b 30 3e
       -0.08635506 -0.05257943 -0.08836889 0.17222565
000130 d0 c7 27 3e 4d 58 96 3e 15 b3 40 3e 89 da 8c 3e
       0.16384816 0.29364243 0.18818314 0.2751048
000140 8f 25 d8 bc 34 c5 73 3e 11 ac 61 bd 34 65 fa bc
       -0.026385097 0.23805696 -0.055095736 -0.030565836
000150 db 13 ae bc 84 bf ce bc 3b 4d d9 bd 32 a8 5f be
       -0.021249702 -0.025237806 -0.10610434 -0.21841505
000160 50 7e 99 be a9 bf 3a bf fe 71 84 3c 40 ba b6 3d
       -0.2997918 -0.729487 0.016167637 0.08922243
000170 d7 45 18 3d 9a 8b ae bb a0 3b 88 be 99 87 ee 3c
       0.03717598 -0.0053267004 -0.2660799 0.029117392
000180 14 b2 34 3b f4 07 2e 3b 0e 44 5f 3c b7 32 9f 3b
       0.0027571963 0.0026555033 0.013627065 0.0048583406
000190 9b b9 9b 3c 41 e5 96 3c d9 a8 e3 bc a0 df 04 3b
       0.019009402 0.018419864 -0.027790474 0.0020274892
0001a0 be ca d7 3c e3 63 76 bd 3d da fa 3b cd 8e b1 bc
       0.026341792 -0.060153853 0.0076554106 -0.021674538
0001b0 7f 90 d2 b9 49 9e 8f 3c 50 89 33 bc 95 9a e1 3d
       -0.0004016198 0.017531531 -0.010958031 0.11015812
0001c0 c9 6b 55 bd 60 0f ac 3d db 70 93 be ad 79 66 be
       -0.052104745 0.0840137 -0.2879704 -0.22507353
0001d0 19 0f 6d be ee 5a c4 bc 4f ce ac bd b9 3b cc be
       -0.2315029 -0.02396914 -0.08437788 -0.39889315
0001e0 b2 2a ca bc cf 4b c1 3c 1b bb 66 3d 41 7c 4f bd
       -0.024678562 0.023595719 0.05633078 -0.050655607
0001f0 6b 3d 50 bd 85 2e 56 bc 33 f8 ed bc c5 80 c8 bd
       -0.050839823 -0.013072615 -0.029049015 -0.09790186
000200 7b d5 74 bd e9 48 1b bd 6e 98 08 bb 26 c1 e2 bd
       -0.059773903 -0.03791133 -0.0020842808 -0.110719964
000210 40 70 36 bf 91 7a 33 bb 96 27 f0 ba ea 97 46 3d
       -0.7126503 -0.0027386288 -0.0018322344 0.04848472
000220 cf 4e 08 3c 19 52 09 bd 89 3d ce bc aa 72 ad 3d
       0.008319571 -0.03352556 -0.025175827 0.08469136
000230 c7 63 20 3c 5c 7f 24 bc 67 cf 0d bd 6f 52 a9 3d
       0.009789414 -0.0100401305 -0.034621622 0.08267676
000240 87 25 11 bc d0 db af 3c 0b ac 1d 3d 70 32 99 bc
       -0.008859045 0.02146712 0.03849415 -0.018700808
000250 1a 43 20 3e 20 fa 5a bf 3a f4 28 bf f1 55 10 3f
       0.15650597 -0.8553791 -0.6599766 0.56381136
000260 80 e2 a4 3e 9f dc 6c 3e c5 14 33 bc 84 36 0b 3d
       0.32204056 0.23131035 -0.010930245 0.033987537
000270 45 d7 c9 be f4 d0 62 3c c7 f3 53 3b 3f 01 14 be
       -0.3942205 0.013843764 0.0032341348 -0.144536
000280 44 9c b8 bd 03 1e 9c bb 4a 37 d7 3c 2f 10 13 3d
       -0.0901418 -0.00476432 0.026271481 0.035904106
000290 ce f0 b3 3e c4 62 c6 bd e3 03 0f bd c9 47 86 bc
       0.35144657 -0.09686807 -0.034915816 -0.016391652
0002a0 bc 89 ff 3c 6e d5 a0 be 54 e2 00 bd 62 86 4c bd
       0.031193607 -0.31412834 -0.031465843 -0.049932845
0002b0 d9 b6 e4 bc 0f c0 a7 bc e8 bc a2 bc c6 d0 1a bc
       -0.02791922 -0.020477323 -0.019865468 -0.0094491895
0002c0 04 9e 96 3d 75 6d 92 bb d6 c7 9d bc 9d 6c 56 3c
       0.07354358 -0.0044686147 -0.019260328 0.013087419
0002d0 ba 2d de 3c d6 3d 3a 3c cc 96 4a bd d9 98 6f ba
       0.027121413 0.011367282 -0.049460217 -0.00091399025
0002e0 43 96 cb bc 59 8c 5e 3d 9c b2 b3 3e dd 6b eb 3e
       -0.024851924 0.054333065 0.35097206 0.4598073
0002f0 9e 5d 07 3f 44 14 74 bd 4a 72 ce 3d 9f b5 f0 3c
       0.52877223 -0.05958964 0.10080393 0.029383479
000300 89 46 66 3e 3f fa d7 bd 76 58 07 3c 36 19 07 3d
       0.22487845 -0.105457775 0.008260837 0.032983027
000310 0c 9a fd 3d 42 bf 33 bd 84 4b 5c be bf f8 b4 bd
       0.12382898 -0.04388357 -0.21513182 -0.08836507
000320 19 a8 e2 be b1 f2 aa bd 6d 70 72 bd 13 2a b6 3b
       -0.44268873 -0.08347071 -0.05918925 0.005559215
000330 56 5e 22 bc 61 8c 58 bd 84 20 2a 3d 39 9f 79 bb
       -0.009910187 -0.05286825 0.041534916 -0.003808929
000340 fe d8 b4 3a 9e 9b e3 bc 90 06 7b bb b0 43 62 bc
       0.0013797579 -0.027784165 -0.0038303472 -0.013810083
000350 b1 9a a7 bc ac ad be bd 39 e7 86 bb 06 a2 59 bb
       -0.020459505 -0.09310469 -0.0041169194 -0.0033208146
000360 ed 36 24 3d 0c 1f 95 3d 1c e2 8b bc b7 75 1a 3d
       0.040091444 0.07281312 -0.01707559 0.037709918
000370 d7 f6 c0 bd 0c 68 a2 bd 02 36 81 3d 15 0c cf be
       -0.09422081 -0.079300016 0.06309129 -0.40438905
000380 e7 91 8c be 47 48 08 be 4e 6a 6d 3c 0e 98 86 be
       -0.27455065 -0.13308822 0.014490677 -0.26287884
000390 35 5f ff 3b eb 9a 72 bb a2 96 9e bc ea 50 55 3c
       0.007793332 -0.0037018608 -0.019358937 0.01301978
0003a0 18 4a 97 3c 1c 5e 6c 3e c5 c7 29 bd 17 59 26 bd
       0.018467948 0.23082775 -0.04145028 -0.040612306
0003b0 9c 1a 81 bc 0d 4c 21 bd fa 48 91 3c 9c 4b 9c 3c
       -0.015759759 -0.03937917 0.017734993 0.019079022
0003c0 fe 27 76 3d 42 4a 25 bc 8e 44 ec bc 1e 9d 2d bd
       0.060096733 -0.010088505 -0.028841283 -0.042386167
0003d0 48 7c fb 3c 4a b0 44 3c e3 b6 ff 3c 2d b0 07 3d
       0.03069891 0.012004921 0.031215137 0.033127
0003e0 f6 97 f7 3b d8 f3 5b 3c 9b d4 c7 3d fe f3 e7 b8
       0.007555957 0.013424836 0.09757348 -0.000110603854
0003f0 1d a6 5a 3c a1 d8 1f bc ae 97 30 bd 91 70 9e bc
       0.013345269 -0.009756238 -0.043113403 -0.019340785

bias f4 [128]
000000 9c ff 91 3f 33 93 c9 bf 6b 0f 0c 3f c4 33 1d 3f
       1.1406131 -1.5748047 0.54711026 0.61407113
000010 f4 32 93 3e ba 5f 71 3f 4c 39 41 3e ee 68 94 be
       0.28749812 0.9428669 0.18869513 -0.28986305
000020 a2 28 d5 bf 49 0f 97 3e 31 aa 9a 3e c5 ee 85 bc
       -1.6653025 0.2950385 0.3020797 -0.016349206
000030 26 fc b7 bf 91 e6 01 3e df ae 2d bf 2d 22 82 3f
       -1.4373825 0.1268561 -0.6784496 1.016668
000040 9e 56 01 bf 20 fc d7 bf 01 7b 18 3f 0d 2d 90 be
       -0.5052279 -1.6873817 0.5956269 -0.2815937
000050 dc 6f aa 3e 7c 9c a5 be 79 16 a8 3e 14 1d 72 3f
       0.33288467 -0.3234595 0.32829645 0.9457562
000060 66 cb dd 3e 3a d0 4a 3e d7 75 5a 3f 59 41 0e 3f
       0.43319243 0.19805995 0.8533606 0.5556846
000070 25 ef 20 bf 50 f9 5c bf 4e 79 7f bd 3b a3 7e 3e
       -0.62864906 -0.8631792 -0.062371545 0.24866955
000080 07 73 ab bf 3d fc 8e bf e1 0b 4b be 64 20 22 3f
       -1.3394479 -1.1170727 -0.1982875 0.63330674
000090 32 d2 32 3f 8d da c8 bf f5 b3 e0 bf 30 53 6b 3f
       0.6985198 -1.5691696 -1.7554919 0.9192381
0000a0 36 27 3d 3f bf a2 05 3f c2 24 65 bf 9b 29 7c 3f
       0.73887956 0.52201456 -0.8950921 0.98500985
0000b0 4d a9 93 bf 3c e5 dd 3e 11 36 9c bf ec 00 0d 3e
       -1.1536041 0.43338954 -1.2204 0.13769883
0000c0 90 8b 29 bf 27 12 3a bf 7a c6 58 3f dc e5 18 3f
       -0.6622858 -0.7268395 0.8467785 0.5972574
0000d0 b9 61 1b 3d 9e 6f aa bf b8 cc c4 be a3 72 61 3e
       0.037934992 -1.3315313 -0.38437438 0.22016387
0000e0 00 63 d3 3e 14 65 0a 3f 72 8a cc 3f 84 29 76 bf
       0.41286469 0.5406048 1.597975 -0.961571
0000f0 d4 41 ab 3e 90 68 a4 be 33 cb 5e 3f fc a6 a7 bf
       0.3344866 -0.32111025 0.8702881 -1.3097835
000100 85 9c 33 bf 0d d4 96 3e f2 d8 2b bf b4 48 5a 3f
       -0.70160705 0.29458657 -0.6712791 0.85267186
000110 b2 1e 2e 3f f5 0c 90 bf e8 24 a3 bf 6e e4 5b 3f
       0.6801559 -1.1253954 -1.2745638 0.8589543
000120 a1 6a 8e 3f 69 69 7b 3d 2a 0c 99 bf 78 fb 61 3e
       1.112629 0.061379824 -1.1956837 0.22068584
000130 15 63 ac 3e d2 a0 e6 3e 11 d0 c0 3f 82 e0 d3 bd
       0.33669344 0.4504457 1.5063497 -0.10345556
000140 b8 34 e8 3d 79 3a 81 3e 64 34 7a ba 91 20 bf bf
       0.1133818 0.25239924 -0.000954455 -1.4931813
000150 ee 65 94 3f f8 fb dd bf ce b4 a8 be 32 0d b1 3f
       1.1593606 -1.734252 -0.32950443 1.3832152
000160 ef b4 c2 bf af 97 27 3e cc 0c 9e bf d5 f2 38 3f
       -1.5211467 0.16366456 -1.2347655 0.7224553
000170 23 58 a4 bf c0 cb 3a 3f f1 88 c3 bf b8 b1 19 3f
       -1.2839397 0.7296715 -1.5276166 0.600368
000180 c0 a2 f1 3e 62 14 0a 3f 6b b1 36 3f fb e8 a7 3f
       0.4719448 0.5393735 0.7136447 1.3117975
000190 0a 87 2e 3f 16 df 3f 3f 6e 0a 86 3f 39 b3 5c bf
       0.68174803 0.7494978 1.0471933 -0.8621097
0001a0 6b eb 68 3e e5 ee 6d 3f 41 cb 18 bf 1f 50 dd 3e
       0.22746055 0.9294265 -0.5968514 0.4322519
0001b0 a9 3b 54 3f 7e 7f d6 3f 95 17 63 3f b0 07 10 3f
       0.82903534 1.6757658 0.8870786 0.5626173
0001c0 d4 68 c4 3f 17 a9 18 bf f2 b8 ce 3d 32 a0 c6 bf
       1.5344491 -0.5963301 0.10093869 -1.5517638
0001d0 b9 95 60 3f 63 33 3b 3f b5 38 3b 3f 5b b3 af 3e
       0.8772846 0.73125285 0.73133403 0.34316525
0001e0 67 38 66 3f 92 e5 a9 3f 3a a5 07 3f 10 d1 48 bf
       0.89929813 1.3273184 0.5298649 -0.78444004
0001f0 8c c9 be bf 77 8a 51 3d 79 3b 79 be 96 6b ba bf
       -1.4905257 0.05115744 -0.24339093 -1.4564083

weight f4 [64, 128]
000000 f2 7f a4 bd 65 5c ba 3c 5a 08 24 bc b5 d8 17 bd
       -0.08032216 0.022749135 -0.010011757 -0.037071902
000010 61 d2 e3 3b bc 55 2b bd c4 4d 5e bc 59 83 eb bc
       0.0069525694 -0.04182981 -0.013568345 -0.028749155
000020 15 38 8c 3d db da 4d 3d 72 9b 09 bd fb dd a0 bd
       0.06846634 0.050257545 -0.03359551 -0.078548394
000030 41 eb 9a bc d1 0f 3a bd a6 cc 45 bd 51 f4 cb 3d
       -0.018911006 -0.04542524 -0.04829087 0.09958709
000040 74 e0 51 bd ed 08 45 be dc ce c9 bc 5a d4 09 bd
       -0.051239446 -0.19241686 -0.024634771 -0.03364978
000050 26 36 67 3d 88 2e cd bc b1 42 16 bd 59 d1 84 bd
       0.056448124 -0.025046602 -0.036684696 -0.064852424
000060 e0 20 8d 3d 3d 43 5c 3b 1e d5 aa bd be e6 72 3d
       0.06891036 0.0033609413 -0.0834143 0.059302084
000070 88 0b b6 bd 1d 27 52 bd 3f ad 17 bd 70 56 47 3d
       -0.08888918 -0.051306833 -0.037030455 0.048666418
000080 f5 52 c2 3c 21 0c a3 bd 12 6f aa bc 94 1d 80 3b
       0.023721198 -0.07961298 -0.020804916 0.003909776
000090 d8 81 40 bb 9f f5 32 be 4f 9f 97 3c 60 1e c4 bc
       -0.0029374268 -0.1747651 0.018508581 -0.023940265
0000a0 e4 7f 48 3d 1c df 0d bd 20 06 f1 bd 05 fd 7e bd
       0.04895009 -0.0346366 -0.117687464 -0.062253017
0000b0 31 d1 78 3c df 00 f8 3c 86 54 37 bb 39 c5 df 3c
       0.015186594 0.030273853 -0.0027973964 0.027315723
0000c0 96 03 31 bd 23 23 01 be 68 cc db 3c 78 73 2d 3b
       -0.04321631 -0.1261106 0.026830867 0.002646653
0000d0 1c 8c f2 3c 03 d1 d9 bd 7d 32 b1 bd 87 20 b9 bc
       0.029607825 -0.10635569 -0.08652208 -0.022598518
0000e0 f7 50 e8 3c ea 95 0c 3c 1b 77 e4 bd b1 69 b5 bd
       0.02835892 0.008580664 -0.1115553 -0.0885805
0000f0 19 c6 4f bc c3 bb 10 3d 31 39 4b 3d ef d9 56 bc
       -0.0126815075 0.035335314 0.04961509 -0.013113483
000100 dc 55 d0 3c 14 dc a8 bd a2 7b 87 bc a9 21 db bc
       0.025431566 -0.082451016 -0.016538445 -0.026749449
000110 c0 eb 0b 3e 9f d0 83 bd 4b da e3 bd 53 14 ff 3b
       0.1366415 -0.06436276 -0.111256205 0.0077844053
000120 fb 9e 91 3d 6a 78 0c bd 92 2c e2 bd 0e 20 cb bc
       0.07110401 -0.034294523 -0.11043657 -0.024795558
000130 45 ef 43 bd 0f 3e d7 3c af c5 d2 3d 93 55 7e 3d
       -0.047835607 0.026274709 0.102916114 0.06209333
000140 94 c5 a5 bd 81 0b 66 3b a6 87 10 bc 4a 2b 99 bc
       -0.08094326 0.0035102072 -0.008821404 -0.0186974
000150 1a 03 d0 bd 90 fb 48 3e b3 14 b0 bc fc 16 d0 3b
       -0.101568416 0.19627213 -0.021494245 0.006350396
000160 f5 c8 f8 bd f0 cc 1c 3c fb 4a 09 3e 13 fc 41 bd
       -0.121477045 0.009570345 0.13407509 -0.047359537
000170 b8 ce 39 bd 63 27 c8 3d 81 38 34 be cc 84 32 3d
       -0.045363158 0.097731374 -0.1759968 0.043583676
000180 f0 bb 06 bb ee 81 7e b9 a7 20 d5 bd 19 dc 0a bc
       -0.0020558797 -0.0002427173 -0.104066186 -0.008475327
000190 2d 7b 8f 3b a4 a0 4b 3d c0 f8 d9 bd bb 5b 0b bc
       0.0043786974 0.049713746 -0.106431484 -0.008505757
0001a0 cc 4e 24 bc 04 84 a7 3c 50 c6 1c bd 3d e1 07 bb
       -0.010028552 0.020448692 -0.038275063 -0.0020733618
0001b0 61 58 5c bc be 9d e4 3d 89 bc 89 3d e0 19 e5 bc
       -0.013448806 0.111628994 0.06725413 -0.02796644
0001c0 0c 6c e3 bc f9 1d 05 bd 42 c1 59 bd b7 88 b5 3c
       -0.027761482 -0.032499287 -0.05316282 0.022159917
0001d0 f4 af 78 3d 10 ea 4d 3c 80 9b aa bc 2a 34 d0 bd
       0.060714677 0.012568012 -0.020826101 -0.101661995
0001e0 5b cc 80 3d 21 36 fd bb a8 3c a6 3b 59 6e 93 3c
       0.06288978 -0.0077274 0.0050731488 0.017996954
0001f0 d3 46 ca bb 02 4e b8 3b 02 25 73 3c 2f ac 27 be
       -0.0061729937 0.0056245336 0.014840366 -0.16374277
000200 25 8d 98 bc dc 9f 9a bb 3d 8d 44 3d 65 57 70 bd
       -0.01862199 -0.0047187638 0.047986258 -0.058677096
000210 c6 18 21 3d cc cf 03 3e 37 c6 43 bd 73 49 b2 3d
       0.039330266 0.12872237 -0.047796454 0.087054156
000220 e8 31 46 3e 64 a2 32 bd f9 c4 17 3c a6 e3 76 3d
       0.19354975 -0.0436119 0.009263271 0.060275696
000230 e0 fd d4 3a 1f 34 11 bc 0f d7 7f bd 5f a7 8a 3c
       0.0016249977 -0.008862524 -0.062460955 0.016925512
000240 d9 5f e0 bd fe 40 fb bd 1b d6 95 3d d7 7b a5 3c
       -0.109557815 -0.12268256 0.07316228 0.020200653
000250 ec dd 25 be 62 90 d0 bc 9d 66 08 be 11 e8 9e 3d
       -0.16197938 -0.025459472 -0.13320394 0.07759107
000260 ed 85 bb bc 82 2d a4 bd f7 83 15 3b f0 01 4a 3e
       -0.02289101 -0.080164924 0.0022814253 0.19727302
000270 84 ec 2d 3d 7b d8 33 3d eb 44 1e bd 17 42 74 3b
       0.042461887 0.043907624 -0.038639944 0.0037270838
000280 b3 2f d1 bd 94 f8 c1 3c c3 22 02 bd e3 9c 65 bd
       -0.10214176 0.023678102 -0.031771433 -0.056057822
000290 48 ae 84 bb 33 df 4f bd 46 af c9 bd 81 2b 8b 3b
       -0.0040490963 -0.05074997 -0.09847884 0.0042471294
0002a0 11 bd 8a bd 08 6f 33 bd 4d 95 c4 bd de e8 3c bd
       -0.06774343 -0.04380706 -0.09598789 -0.046120517
0002b0 08 63 a6 3b a2 92 73 bc f9 e6 93 bc 7d 24 9a bd
       0.0050777234 -0.014866503 -0.018054472 -0.07526491
0002c0 b7 47 32 3d 31 36 83 bd bd ba af 3c 4a 7c 25 bd
       0.043525424 -0.064068206 0.021451348 -0.040401734
0002d0 89 b7 a1 bc 86 1f 5a be 19 7a 0c be 4c 5e 23 bc
       -0.019740837 -0.21301088 -0.13718452 -0.009971213
0002e0 81 7e ae 3d 75 53 4c 3d c8 45 9b 3d eb 9f cc bd
       0.085202225 0.04988428 0.07581669 -0.099914394
0002f0 ec 02 9e bc 28 8c 2c be a5 30 c1 bc 80 c2 9b bc
       -0.019288503 -0.1685034 -0.023582766 -0.019013643
000300 ed da b0 bd bc 40 cb bc 80 b7 40 bd 02 23 bc 3c
       -0.08635507 -0.024811141 -0.04705 0.022965912
000310 73 c8 82 39 85 b3 03 3e 93 8c 6b be 61 b4 07 bd
       0.00024944879 0.1286145 -0.23002844 -0.033131007
000320 ef e6 8d 3c 80 c9 9f 3b 09 3a 15 bd 37 d3 b6 3d
       0.017322032 0.0048763156 -0.0364323 0.08927005
000330 e7 1e ff bd 90 13 a7 bc b8 a1 2d bc 1b 5f d1 bd
       -0.12457066 -0.02039507 -0.010597639 -0.10223218
000340 03 ae c1 bd 55 f7 c3 3d 50 da ba 3c 17 3a 21 be
       -0.09457018 0.09568659 0.022809178 -0.15744816
000350 68 cb e6 3d ce 06 7a 3e 12 72 df bd 8a 63 f3 3c
       0.112692654 0.24416658 -0.10910429 0.02971055
000360 90 ef b8 bd b7 07 6a 3d 11 e7 01 3d dd f1 10 3e
       -0.09030068 0.057136264 0.031714503 0.14154764
000370 27 d2 f2 bd 0f 24 df bd 71 bc fa bd ea dc 46 bc
       -0.1185649 -0.108955495 -0.122429736 -0.012137631
000380 ae 5d fb bd 1a 63 6c 3d bb e9 27 3a d8 af 80 3c
       -0.12273727 0.057711698 0.0006405373 0.015708849
000390 d4 69 bb bd 90 1d 00 3c f6 e7 b9 3c e6 3c ef bd
       -0.091510445 0.007819548 0.022693615 -0.11681537
0003a0 21 e0 75 bc d5 0c 34 3d 96 f5 39 3d ad a5 49 3e
       -0.01500705 0.04395755 0.045400225 0.19692107
0003b0 be fa 91 3d 18 e8 32 3e 4f 66 2c 3d 88 52 ca 3d
       0.071279034 0.17471349 0.042089757 0.09879023
0003c0 49 59 5a bd f9 df 06 3d b5 77 f1 bc 7e b2 fd 3d
       -0.053307805 0.03292844 -0.029476026 0.1238756
0003d0 bf 36 71 3d 45 e7 aa bd 75 2d 26 bd bf 11 99 3c
       0.0588901 -0.083448924 -0.040570695 0.01868522
0003e0 17 9b ae bd 42 c3 df bc 42 b6 81 3b f9 41 85 3d
       -0.08525675 -0.027314786 0.0039584944 0.06506724
0003f0 e7 6a 64 be 6b b8 31 bc 7e 8b 17 3d 22 a1 25 be
       -0.22306405 -0.010847191 0.036998264 -0.16174749

bias f4 [64]
000000 42 b0 3c bf 7a 1d 88 bf 30 ad 87 bf 3b 9f 8a 3f
       -0.7370645 -1.0633996 -1.0599728 1.0829843
000010 28 be ef 3f 31 24 8a 3f 4a d9 64 bf 2d dd 4d bf
       1.8729906 1.0792295 -0.89394057 -0.8041561
000020 b8 5f 79 bf 1b bf 32 3f da 58 47 3f 9d 16 97 3e
       -0.9741168 0.69822854 0.7786995 0.2950944
000030 42 04 9c 3f 81 fa a5 3e 7e a7 3c bf f5 b6 8f bf
       1.2188799 0.32417682 -0.7369307 -1.1227709
000040 95 79 0d 3f 93 0e 0b bf 20 0b 23 bf d8 d3 2b 3f
       0.55263644 -0.54319113 -0.6368885 0.6712012
000050 45 c5 ee bf 24 25 80 3f 9b 65 7a 3f 93 e1 d9 bf
       -1.8653952 1.0011334 0.9781129 -1.7021965
000060 83 15 2c bf a9 1c 11 bf 9e b2 0e bf 57 09 96 bf
       -0.67220324 -0.56684357 -0.557413 -1.17216
000070 7d 40 37 bf c2 f7 35 bf c3 91 39 bf 28 b1 06 3f
       -0.71582776 -0.71081173 -0.7248804 0.5261407
000080 87 4d 1e 3f 9c c3 57 3f 67 b9 4d 3f 92 1b 95 bf
       0.6183705 0.8428285 0.80361027 -1.1649039
000090 23 43 39 3f a5 91 92 bf 0f fe 84 3f b1 f5 38 bf
       0.7236807 -1.1450697 1.0390033 -0.72249895
0000a0 c7 38 6f 3f a3 0f 5c 3f da f1 37 3f 24 4a e1 3e
       0.9344601 0.8596136 0.7185341 0.44001877
0000b0 16 16 2b bf b3 8f 73 3f dd cd 89 bf 29 f3 f7 3e
       -0.66830575 0.9514114 -1.076595 0.48427704
0000c0 82 2d 91 bf db e2 eb be db 4f 8c 3f 8d a7 16 bf
       -1.1342013 -0.46071514 1.096187 -0.5884941
0000d0 5c a0 e8 be 70 b2 21 3f 87 01 8f bf a6 38 1f 3f
       -0.45434844 0.631629 -1.1172341 0.62195814
0000e0 ce 60 c9 bf 37 b8 4e 3f 01 e3 10 bf 88 ad 91 bf
       -1.5732667 0.8074984 -0.5659638 -1.1381083
0000f0 d7 f7 a4 3f c0 5e b7 bf 8e 4d 58 bf 7d 38 9a 3e
       1.2888135 -1.432579 -0.8449334 0.30121222

weight f4 [32, 70, 1]
000000 2f 7c 72 3e d2 28 9f bf 0d df 80 bf 82 9e 80 bf
       0.23680185 -1.2434332 -1.006807 -1.0048373
000010 bb 9f 93 bf c4 f2 99 bf 05 e6 b0 3c 83 74 0c be
       -1.1533121 -1.2027211 0.021594057 -0.1371632
000020 09 ac 5c 3c 17 68 b1 bc 1b d1 a0 3d af 49 c8 3b
       0.013468751 -0.02165608 0.07852384 0.0061122994
000030 ee e9 db bc b7 a3 e8 3d 0f 89 7d 3d 22 fd 0a bd
       -0.026844945 0.11359351 0.061898287 -0.033932813
000040 a7 15 8c bd 57 c6 0c bd 48 ab f6 3c 39 7e a8 bd
       -0.06840067 -0.03436884 0.03011097 -0.082272
000050 7e d7 2c bd 2e 44 23 be e0 06 95 3d 1f 2e c1 3c
       -0.042197697 -0.15943977 0.07276702 0.023581563
000060 49 79 97 bd 96 d4 73 3c 90 40 40 bd 83 9f c3 bd
       -0.0739618 0.014882227 -0.04693657 -0.09551909
000070 e8 6e 70 bd 3a b5 a4 3b 1d db fa 3d ab 84 b3 bd
       -0.05869952 0.0050264867 0.12248824 -0.08765539
000080 f9 95 3d 3d aa 83 9d 3d 86 1e 0e 3d 70 60 a1 3c
       0.046285603 0.076911286 0.03469708 0.019699305
000090 98 6b bf 3c c5 5e fc bc 10 70 7f bd bc 45 05 3e
       0.023366734 -0.030806908 -0.06236273 0.13014883
0000a0 c0 b6 bb 3d d9 bc b4 bd 7b cf c2 3c 04 dd ce 39
       0.09165716 -0.08825082 0.023780575 0.0003945605
0000b0 83 5b 20 3c d9 4a 3b 3d 4f 5b 08 3e 03 6e d4 3c
       0.009787443 0.045725677 0.13316081 0.025931364
0000c0 41 63 07 bd 90 33 0b 3d 60 90 9b bd 5c ac 90 3d
       -0.03305364 0.03398472 -0.07595897 0.07064125
0000d0 69 38 58 3d 6b d1 52 3c 64 a2 3a 3d 4b 5c 26 3d
       0.052788172 0.012867312 0.045565024 0.04061536
0000e0 34 55 07 3e fa b5 94 3c 57 89 ab bd 38 c0 30 3d
       0.13216096 0.01815318 -0.08375805 0.043152064
0000f0 47 80 a9 3c d3 03 07 3d f7 d3 b6 bc 2a dc 2f 3c
       0.02069105 0.03296263 -0.02231787 0.010733644
000100 d9 46 8f 3d 13 1e 1e be 2d 66 a0 bd 22 f6 7c bd
       0.06995935 -0.1544116 -0.078319885 -0.061758168
000110 6c 6e ba bd 13 c7 6f 3d a1 ef ba 3e 95 c9 a1 3f
       -0.091030926 0.05853946 0.36510947 1.2639643
000120 55 19 a6 3f 8d 75 9b 3f 71 17 ab 3f 78 0a ae 3f
       1.2976481 1.2145249 1.3366529 1.3596945
000130 48 99 97 bd 1a fc e2 bd 52 b9 9e bd 50 02 9a bc
       -0.07402283 -0.11083241 -0.07750191 -0.01879993
000140 a0 d5 df 3d 87 0c cb 3d d1 a4 e9 3c 94 7a 23 be
       0.109294176 0.09914499 0.028520973 -0.15964729
000150 b0 09 5d bd e4 95 37 3d 7a 38 84 bd 86 a4 85 bd
       -0.053964317 0.04482068 -0.064560845 -0.06525521
000160 10 aa 69 3d 3d d6 90 bd e9 02 2a bd a8 7b 7b bd
       0.05704695 -0.07072113 -0.04150668 -0.061397225
000170 cd ef 48 39 c5 0b a1 3d a5 8e b6 bd d6 0e 0d bd
       0.00019162819 0.07863573 -0.08913926 -0.034437977
000180 90 1d 55 3d c4 00 e4 bc 4e 81 a7 3d af 34 9f bd
       0.052030146 -0.027832396 0.0817896 -0.077737205
000190 77 79 8b 3d 19 ba 2c bd 45 fd 2f be c8 c4 23 3d
       0.06810277 -0.042169664 -0.17186458 0.039982587
0001a0 53 c9 d2 3a d1 c1 5e bd 21 11 4c bd 5c f5 8e 3d
       0.0016081728 -0.054384056 -0.049821023 0.06980392
0001b0 8f 74 bd bc 9d 91 a6 bd c7 14 ff 3d ce 9f 2c 3d
       -0.023126869 -0.08133242 0.12455135 0.04214459
0001c0 f5 f2 32 3d 33 f9 63 bd 4a 0d 59 3d 26 20 79 3d
       0.043688733 -0.055657577 0.05299119 0.060821675
0001d0 cb 11 6b 3d ab 6b 5d bc e7 9d e0 bc fd c8 93 bc
       0.057390016 -0.01351444 -0.027419044 -0.018040175
0001e0 09 ce 96 bd b2 6f 3f bd 32 db cf bd 46 bc a4 3d
       -0.07363517 -0.04673738 -0.1014923 0.08043723
0001f0 7b 1c 9e 3d ed b7 b9 3d 5c b7 42 3d d3 69 ff bd
       0.07720276 0.09068284 0.047538146 -0.12471356
000200 c3 3a fe bd de 93 03 3c 6d 14 ea bd 2b 23 17 3d
       -0.12413552 0.00803086 -0.11429677 0.036898773
000210 42 88 02 3d d4 88 a0 bd 39 31 43 bd b5 e5 41 bd
       0.031868227 -0.07838598 -0.047654364 -0.047338206
000220 2b 41 2e 3e f5 d9 c1 bb ec 70 c1 bd 60 cc 9b bc
       0.17017047 -0.005915875 -0.09445366 -0.019018352
000230 32 53 b2 3e 3c f5 89 bf ba d7 96 bf 27 73 93 bf
       0.34829098 -1.0777965 -1.1784585 -1.1519517
000240 b9 fb 84 bf cc 33 92 bf a8 96 c7 3d 53 f0 52 3d
       -1.038932 -1.1422057 0.09745532 0.051498722
000250 b8 1c 03 3c 6e d6 5d bd 13 eb b7 3d 2b 6d fd 3d
       0.008002453 -0.054159574 0.08980384 0.12374338
000260 b3 6f 52 bd d4 3b af bd 20 8c 9d bd 96 16 5d 3d
       -0.051376056 -0.08556333 -0.07692742 0.053976618
000270 5d de 62 bd 6d 98 e5 3c ce 89 84 bd 14 34 13 3d
       -0.055387843 0.028026784 -0.06471597 0.035938337
000280 3a f8 1b bd d0 03 a0 bc cf 87 a3 3c 31 ce 89 bd
       -0.038078524 -0.019533068 0.01996222 -0.06728781
000290 8e 56 f6 3c 05 8e 9b bd b6 ac 8c bc 76 39 98 3d
       0.03007057 -0.075954475 -0.017172199 0.07432835
0002a0 1c 0b 02 3d c3 98 27 3d 23 c6 75 3d 97 97 30 bd
       0.031748876 0.04091717 0.06000341 -0.043113317
0002b0 ef 59 4c bd fa 58 fb bd 17 1e a6 3c d8 4a 5f 3d
       -0.049890455 -0.1227283 0.02027802 0.054514736
0002c0 b0 8e 86 3d 84 b6 95 bd 38 6e 3f bd eb 5d 8c 3d
       0.06570184 -0.07310203 -0.046735972 0.06853851
0002d0 f2 dc 17 bd 23 69 72 3d b7 d9 e5 bd e4 f1 26 3d
       -0.037075944 0.059182297 -0.112231664 0.04075803
0002e0 24 5b 31 3e bd 7a 90 bd 13 07 bc bc 7a 81 9d bd
       0.17319924 -0.070546605 -0.022952592 -0.07690711
0002f0 0f e7 a1 bd 42 95 d5 3d 84 cc 1a bd d5 6b bf 3d
       -0.07905399 0.10428859 -0.037792698 0.09346739
000300 64 cd 6b 3d 21 1c e0 bd f9 0a cc bd f1 e8 ad bc
       0.057568923 -0.10942865 -0.0996303 -0.02122924
000310 45 f9 9e 3d c2 56 09 3d 3d 23 71 3c 53 12 ca 3c
       0.07762388 0.033530004 0.014717874 0.02466694
000320 3e 8d e7 3c 5f b7 50 3d b0 37 29 3d 31 48 d2 3a
       0.028265592 0.050956126 0.041312873 0.0016043243
000330 56 2d ae 3d 40 5e 23 be 95 ca 1b bd 9c 98 8a 3d
       0.08504741 -0.15953922 -0.038034994 0.06767389
000340 c6 c9 19 be ab 93 80 bc 99 4a 13 3e 60 ae 8b bf
       -0.15018377 -0.015695414 0.14383925 -1.091259
000350 dd 32 8b bf a5 b4 94 bf 47 50 a4 bf 0e 41 91 bf
       -1.0874897 -1.1617628 -1.2836999 -1.1347978
000360 36 85 21 bd 3e b5 dd bd b3 28 2f 3d 34 b5 87 bd
       -0.03943368 -0.10825585 0.042763423 -0.06626359
000370 7a 61 3e 3e 16 e1 87 3d af e1 35 3c b1 8f 9a 3d
       0.18591872 0.066347286 0.01110117 0.07546938
000380 dd cf 7a 3d 14 76 4a bd 73 65 d2 bd 3e 2a f8 bd
       0.06123339 -0.049429014 -0.10273256 -0.12117432
000390 77 59 cc bd 9d 02 17 3e 87 23 b3 bd 45 87 8a 3d
       -0.099780016 0.1474709 -0.08747011 0.06764082
0003a0 84 56 b7 bd cf b6 b2 bd 53 c0 a4 bd 3c 18 8f 3d
       -0.089520484 -0.08726274 -0.080444954 0.06987044
0003b0 cd 7a 49 3d 94 0f f9 3a 0e 17 41 bc 1c 50 ee bd
       0.049189378 0.0019001835 -0.011785282 -0.116363734
0003c0 e6 c9 00 3e 5c f4 01 be 38 9f 96 bc 75 25 b3 3d
       0.12577018 -0.12690872 -0.018386468 0.08747379
0003d0 a4 90 52 bd b6 33 30 bd 11 72 3d bd e2 69 1f 3d
       -0.05140747 -0.043018065 -0.04625136 0.038919337
0003e0 39 b3 a9 bd eb e3 91 bd bd 2a bd bc 66 f0 0f 3d
       -0.08286137 -0.0712355 -0.023091668 0.03514137
0003f0 1b a3 dc 3d ec dc 00 be dc 81 06 3e 58 40 d6 bd
       0.107732974 -0.12584275 0.13135475 -0.10461491

bias f4 [32]
000000 fd cc 81 bf c3 3a af 3f 33 7d 80 bf 98 98 a8 bf
       -1.0140682 1.3689808 -1.0038208 -1.3171568
000010 98 2f a3 3f b0 b2 99 bf 19 47 9c 3f 93 c9 b6 bf
       1.27489 -1.2007656 1.2209197 -1.4280266
000020 8f 0b a1 3f 53 90 8b 3f 3d 17 98 3f 78 89 8d bf
       1.2581652 1.0903419 1.1882092 -1.1057577
000030 f7 91 d8 3f 08 f6 9a 3f 45 84 9f 3f d8 fa a1 3f
       1.6919545 1.2106333 1.246224 1.2654676
000040 e1 b7 de 3f 72 0e a1 bf 2c cf a6 bf 10 d7 96 bf
       1.7399865 -1.2582533 -1.3031974 -1.1784382
000050 eb f8 90 3f 6f ce 9c bf 43 4d 8a 3f 3a 5a 83 bf
       1.1325964 -1.2250499 1.0804828 -1.026191
000060 4d 85 84 bf 65 98 7d bf 18 36 99 bf 0d eb 77 bf
       -1.035318 -0.9906066 -1.1969633 -0.96843034
000070 3f 7f a4 3f aa b7 98 3f 93 b7 bc 3f a0 3c a3 bf
       1.2851332 1.193105 1.4743522 -1.2752876

weight f4 [1, 32, 1]
000000 c0 16 03 bf 81 dc ba 3e 5b 98 ec be bc 10 33 bf
       -0.5120659 0.36496356 -0.46209988 -0.6994741
000010 55 22 a4 3e 88 15 b1 be 04 a7 c9 3e a6 51 92 be
       0.32057443 -0.3458674 0.39385235 -0.28577918
000020 48 cd b3 3e 5e 86 ba 3e c0 99 01 3f eb de a0 be
       0.35117555 0.3643064 0.5062523 -0.31420073
000030 e1 ce df 3e 17 03 b5 3e 76 64 88 3e 18 e0 57 3f
       0.43712524 0.3535392 0.26639146 0.84326315
000040 a0 4d f3 3e 8e ad fc be 48 12 38 bf f1 1f 14 bf
       0.4752016 -0.49351162 -0.71902895 -0.5786124
000050 dd 84 29 3f 9e 4e 02 bf 6c b3 2c 3f 00 31 b7 be
       0.6621836 -0.5090121 0.67461276 -0.35779572
000060 28 8f af be 21 52 9c bf f2 2b 0e bf f9 4f 1d bf
       -0.34288907 -1.2212564 -0.55535805 -0.61450154
000070 e1 df be 3e 74 1b d5 3e ab ec bb 3e b7 fa e9 be
       0.3728018 0.41622508 0.36704 -0.45699093
