environment_model_weight/2021_AHU302_envmodel.pth (torch, 68111 bytes, 7 tensors)

weight f4 [128, 37]
0	0xbdf96c75	-0.1217889
1	0x3e915f95	0.28393236
2	0x3e911240	0.28334236
3	0x3e4ceff7	0.20013414
4	0x3eb4a15b	0.35279354
5	0x3e52580e	0.20541403
6	0x3d236962	0.039895423
7	0xbbe8a3f2	-0.007099622
8	0x3d91af25	0.07113484
9	0x3dee3fca	0.116332605
10	0x3d80cc29	0.062889405
11	0xbd6fc9a8	-0.058541924
12	0xbdd14107	-0.10217481
13	0xbdf7bab0	-0.12096155
14	0xbd8a56c9	-0.06754834
15	0xbe4d7a65	-0.20066221
16	0x3c568355	0.013092835
17	0x3d00e0b3	0.03146429
18	0x3d14d4b7	0.036335673
19	0xbbbafa76	-0.005706127
20	0x3d1d1d00	0.038357735
21	0xbde37562	-0.11106373
22	0x3cd63eb1	0.02615294
23	0x3ccfa677	0.025347931
24	0xbd5d8b13	-0.05408771
25	0x3c46f2c1	0.012142838
26	0xbe024924	-0.12723213
27	0xbdadd5c1	-0.08488036
28	0x3dd1e05a	0.1024787
29	0xbe1fcf45	-0.15606411
30	0x3df3d20c	0.11905298
31	0x3c6caa40	0.014444888
32	0x3b0c1c08	0.0021379013
33	0xbc83cf79	-0.016090142
34	0x3bc9ccdc	0.0061584543
35	0xbdca8c43	-0.09890034
36	0xbdc78e88	-0.097439826
37	0xbf15808c	-0.5839927
38	0x3e3725de	0.17885539
39	0xbf0595c4	-0.5218165
40	0xbd0701e8	-0.032960802
41	0xbfa2126a	-1.266187
42	0x3e1eb8a9	0.1550013
43	0x3d5abcba	0.05340264
44	0x3d225fb9	0.03964207
45	0x3c5a3507	0.013318307
46	0x3d0e37b4	0.03472109
47	0x3e218ca0	0.157763
48	0xbdd4dd58	-0.103937805
49	0xbd6604e4	-0.056157008
50	0x3a2e7152	0.0006654459
51	0xb9b7544c	-0.00034967286
52	0xbcf026e0	-0.029315412
53	0xbc9d06fa	-0.019168366
54	0xb8f31dc4	-0.00011592687
55	0xbd4bee8b	-0.04978804
56	0xb9e3b6aa	-0.0004343291
57	0xbe0bf3e0	-0.1366725
58	0x3c8fc360	0.017549217
59	0xbb538e00	-0.0032280684
60	0x3d06a1c8	0.03286913
61	0x3d43f027	0.04783645
62	0x3b64f51f	0.0034936143
63	0x3cec6d51	0.02886072
64	0xbc3452f0	-0.011006102
65	0x3d52d4bf	0.05147242
66	0x3d45a2b3	0.048250865
67	0xbe4b6761	-0.19863655
68	0x3aec71df	0.0018039307
69	0x3c3d2c18	0.011546157
70	0x3bafb92a	0.0053626494
71	0x3d66a210	0.0563069
72	0xbe025667	-0.12728272
73	0xbe29974a	-0.16561618
74	0x3f2f2bb2	0.6842605
75	0xbf0b96a4	-0.54526734
76	0xbf9df0a5	-1.2339064
77	0xbf1693b9	-0.58819157
78	0xbe12378c	-0.14279002
79	0xbe81d530	-0.25357962
80	0xbda76f08	-0.081754744
81	0x3b87ce36	0.0041444553
82	0xbde56ff0	-0.11202991
83	0xbcf917ba	-0.030406822
84	0xbe07b9d7	-0.13254486
85	0x3c1950ca	0.0093576405
86	0x3d73046e	0.059330396
87	0xbceefa2f	-0.029172031
88	0x3d6923a7	0.056918766
89	0x3f0e2ae0	0.5553417
90	0x3d0ac090	0.03387505
91	0x3eb12469	0.3459809
92	0x3da75b6c	0.08171734
93	0x3cffcde8	0.031226113
94	0x3e33cef1	0.1755941
95	0xbdf607fa	-0.1201324
96	0x3ab878fa	0.001407414
97	0xb944d717	-0.00018772144
98	0x3b7dac0e	0.003870729
99	0xbcffa225	-0.031205246
100	0x3e1dd322	0.15412572
101	0x3e7010ad	0.23443861
102	0x3eaeedb7	0.34165737
103	0x3e9442ea	0.289573
104	0x3e6049d7	0.21903168
105	0x3ce5b332	0.028039549
106	0x3c54b567	0.012982703
107	0x3e1d1f83	0.15344052
108	0xbc3797f3	-0.011205661
109	0x3deab42e	0.11460148
110	0x3e002df6	0.12517533
111	0xbe0c15b7	-0.13680159
112	0x3d96aa88	0.07356745
113	0xb83a41e0	-4.4407207e-05
114	0xbe6ccb4a	-0.23124424
115	0xbe4a2752	-0.19741562
116	0xbd0add3d	-0.033902396
117	0xbda71ed0	-0.08160174
118	0x3e38b651	0.18038298
119	0x3d7b376a	0.061332144
120	0xbc8e8b6e	-0.01740047
121	0x3db044b9	0.08606858
122	0xbc0bb0ac	-0.008526009
123	0x3bbf7db7	0.005843844
124	0x3d8180e9	0.06323416
125	0x3d507f32	0.050902553
126	0x3d9c2f77	0.07626241
127	0x3cd7dd8b	0.026350757
128	0x3d8a6d6a	0.0675915
129	0x3d411439	0.047138426
130	0xbb3ed3de	-0.0029117982
131	0x3c2ae688	0.0104309395
132	0x3d087df6	0.03332325
133	0x3c4f8af2	0.0126674045
134	0x3c9c966b	0.019114694
135	0xbcca131b	-0.024667313
136	0xbcf54394	-0.02993945
137	0x3cc36d04	0.023855694
138	0x3e66ce29	0.22539581
139	0x3d948251	0.072514184
140	0xbcd3ad11	-0.02583936
141	0xbd39069c	-0.04517232
142	0xbce1d72a	-0.027568419
143	0xbc114719	-0.008867049
144	0x3c6a8d29	0.014315882
145	0xbc705939	-0.01466971
146	0x3dee693f	0.11641168
147	0x3dabf906	0.08397107
148	0xbe0d2494	-0.13783485
149	0x3e158289	0.14600576
150	0x3e51fa73	0.20505695
151	0xbe349ea3	-0.1763864
152	0xbd06135e	-0.032733314
153	0x3e1a07b8	0.15042007
154	0x3e7637df	0.2404475
155	0x3e63803a	0.22216883
156	0x3e960f8c	0.29308736
157	0x3e7158d7	0.23569046
158	0x3e9fc545	0.31205192
159	0x3dd34026	0.1031497
160	0x3da5f38e	0.08103095
161	0x3d72239c	0.05911599
162	0x3d1f6734	0.03891678
163	0x3cd079e9	0.025448756
164	0x3cace3fc	0.021104805
165	0x3c77d2a7	0.015125907
166	0xbcdcab5c	-0.02693718
167	0x39bbf7b2	0.00035851967
168	0x3d6833f2	0.056690164
169	0x3d5bbbad	0.05364578
170	0xbd0b6d1b	-0.034039598
171	0xbd781444	-0.0605662
172	0xbca1ffb3	-0.019775247
173	0xbd494c61	-0.049145106
174	0x3d8951f8	0.067050874
175	0x3d174d45	0.036938924
176	0x3df936a5	0.12168626
177	0xbd226a5b	-0.03965221
178	0x3ce9e4c5	0.028551469
179	0xbd28d18a	-0.041215457
180	0xba5d7651	-0.00084481115
181	0x3d1bfcc1	0.03808284
182	0xbd1240b3	-0.035706233
183	0x3d405d03	0.046963703
184	0x3c9d0c83	0.019171005
185	0xbc547465	-0.012967204
186	0x3e71d002	0.23614505
187	0x3f0813f6	0.5315546
188	0xbe46b16a	-0.19403616
189	0x3d7a043a	0.061039187
190	0xbe4bf1c7	-0.1991645
191	0xbdbe1035	-0.09280435
192	0xbda54431	-0.08069647
193	0xbda1c15e	-0.0789821
194	0xbdc3bf69	-0.09557993
195	0xbdf8d9b1	-0.12150896
196	0xbdccbf04	-0.09997371
197	0xbd9061d6	-0.07049911
198	0xbd21a526	-0.03946414
199	0xbcbb829b	-0.022889426
200	0x3c80db27	0.0157295
201	0x3c1c8ad3	0.009554583
202	0xbc11b416	-0.0088930335
203	0xbc85a45b	-0.016313722
204	0x3c6ff2fe	0.014645336
205	0x3d130bde	0.03589999
206	0x3cae8196	0.021302026
207	0x3cde4f08	0.027137294
208	0x3b2f34c6	0.0026734336
209	0x3c815442	0.015787248
210	0xbdab6e0d	-0.083706
211	0xbd156b1e	-0.036479108
212	0xbd94813a	-0.072512105
213	0xbd1df614	-0.038564757
214	0x3d4efd68	0.050534636
215	0x3d03349d	0.032032598
216	0xba1e5205	-0.00060394435
217	0x3c8ea7e6	0.017414045
218	0xbb877bb5	-0.00413462
219	0xbcc674d7	-0.024225635
220	0x3a995f50	0.0011701379
221	0xbd822a4f	-0.06355726
222	0x3e24f648	0.16109574
223	0xbd8d8d18	-0.06911677
224	0xbedc1aa8	-0.42989087
225	0x3cd72622	0.0262633
226	0x3ce6d38c	0.028177045
227	0xbe4dff7c	-0.20116991
228	0xbe3e2b8c	-0.185713
229	0xbe494511	-0.19655253
230	0xbe8f727b	-0.2801703
231	0xbe195bf7	-0.14976488
232	0xbe51464d	-0.20436974
233	0xbca012bb	-0.019540181
234	0xbbf094c5	-0.0073419535
235	0x3c115110	0.008869424
236	0x3d05aa10	0.032632887
237	0x3b13e80e	0.0022568735
238	0xbcdd55f1	-0.02701852
239	0xbd146476	-0.03622862
240	0xbb7f5885	-0.0038962674
241	0xbc11be5a	-0.008895481
242	0xbcbd252e	-0.023089018
243	0xbdae3af9	-0.08507342
244	0x3d0254ad	0.031819034
245	0x3d8a22a5	0.06744889
246	0xbc37eb43	-0.011225524
247	0xb952ffea	-0.00020122496
248	0x3da4307d	0.08017061
249	0x3e506ee9	0.20354809
250	0x3d858e01	0.06521226
251	0x3e1ba2da	0.15198842
252	0xbd243cc1	-0.040097002
253	0x3d4c6631	0.049902145
254	0x3cb8953d	0.0225321
255	0xbc9b7696	-0.018977445

bias f4 [128]
0	0xbf5fa6ac	-0.87363696
1	0xbf3674d1	-0.71272
2	0x3f010eae	0.50413024
3	0x3bf9ce13	0.007623443
4	0x3fb476e0	1.4098778
5	0x3ee1709b	0.44031224
6	0x3f886559	1.0655929
7	0x3ee7a15f	0.45240304
8	0x3f3f0deb	0.7463061
9	0xbfc0539b	-1.5025514
10	0xbef7b65a	-0.4838131
11	0x3c9d4293	0.019196784
12	0xbfbe02e1	-1.4844629
13	0x3f0be8e4	0.5465224
14	0x3da4086f	0.08009421
15	0x3f73418b	0.95021886
16	0x3f8d4bc7	1.103875
17	0xbdea825e	-0.11450647
18	0x3f790031	0.9726592
19	0xbea2d5ea	-0.31803828
20	0xbf6b8f85	-0.9201587
21	0x3f8633bf	1.0484542
22	0xbf91be0d	-1.1386124
23	0xbe4774fa	-0.19478217
24	0x3e2c4398	0.1682266
25	0xbf1316a4	-0.5745642
26	0x3f6b4cff	0.9191436
27	0xbf86fcb3	-1.0545868
28	0xbd964ff8	-0.073394716
29	0xbf10b36f	-0.56523794
30	0xbfbdd070	-1.4829235
31	0xbfae787c	-1.3630519
32	0xbfc096fe	-1.5046079
33	0xbe43bfae	-0.19116089
34	0x3f8c8aab	1.0979818
35	0xbf6bfe8a	-0.9218527
36	0x3f87a610	1.0597553
37	0x3e62172c	0.22079152
38	0xbfb77eb9	-1.4335548
39	0x3e504223	0.20337729
40	0x3f9f7d61	1.2460138
41	0xbfba58b2	-1.4558318
42	0x3f40b2ad	0.7527264
43	0xbf94dd3a	-1.1630013
44	0xbe8c5d28	-0.27414823
45	0x3f9be935	1.2180544
46	0xbf0d344b	-0.5515792
47	0x3f7a97ed	0.9788807
48	0xbf82e091	-1.0224782
49	0x3f69788a	0.91199553
50	0xbea8805b	-0.32910427
51	0x3a247a24	0.0006274304
52	0x3f83a6a4	1.028523
53	0x3f25136d	0.64482766
54	0x3f6c1b8e	0.92229545
55	0x3fb05bba	1.3777993
56	0x3f984939	1.1897346
57	0x3f0335fe	0.5125426
58	0x3f553d38	0.8329654
59	0x3f1c5a86	0.6107563
60	0x3e7f1fae	0.24914429
61	0x3f8d05b0	1.1017361
62	0xbe4d3a1d	-0.200417
63	0x3f616746	0.8804821
64	0x3f260031	0.6484404
65	0xbfa2cabf	-1.2718123
66	0x3f0b313e	0.5437201
67	0x3e21b482	0.15791515
68	0xbdaaf699	-0.08347816
69	0xbf830ec1	-1.0238878
70	0x3f421633	0.75815123
71	0xbddd2242	-0.1079755
72	0xbfbec20a	-1.4902966
73	0x3ef2e276	0.474384
74	0x3f4b8dd6	0.795133
75	0x3f50c9e5	0.81558067
76	0x3d47dd5c	0.04879509
77	0xbfa4944b	-1.2857755
78	0xbfb53347	-1.4156274
79	0x3fd4359a	1.6578858
80	0x3fb67c5d	1.4256703
81	0xbefb8254	-0.4912287
82	0xbf74e2a4	-0.95658326
83	0x3f65b2fc	0.89726233
84	0x3f577fa1	0.8417912
85	0x3f16f7cb	0.5897185
86	0xbf4c5eac	-0.7983196
87	0xbd7b64df	-0.061375495
88	0x3e966eeb	0.293815
89	0xbf784ba2	-0.96990407
90	0x3f3d3749	0.73912483
91	0x3e95b1ab	0.29237112
92	0x3f8d4a82	1.1038363
93	0x3f32b950	0.69814014
94	0xbfb40eea	-1.4067051
95	0xbefd0645	-0.49418846
96	0x3f364fbe	0.71215427
97	0x3e9ec030	0.31006002
98	0x3f7b8eba	0.9826466
99	0xbedee73f	-0.43535802
100	0xbc8cf336	-0.017205816
101	0x3f523d49	0.82124764
102	0x3f02711e	0.50953853
103	0x3f6ca136	0.9243349
104	0x3f89937b	1.0748132
105	0xbe20f8bc	-0.15719885
106	0xbe5d60b9	-0.21618928
107	0x3f5f38fa	0.87196314
108	0x3f4b2d33	0.79365844
109	0xbf829f2c	-1.0204825
110	0xbfc3be1c	-1.5292392
111	0x3f6eeda0	0.93331337
112	0x3e975f8c	0.29565084
113	0xbfca47c6	-1.5803154
114	0xbf55ce0c	-0.8351753
115	0x3ef92880	0.48663712
116	0xbf9b52ee	-1.2134683
117	0x3f39a409	0.7251592
118	0x3f8e5f07	1.112275
119	0x3e9a9be4	0.3019706
120	0x3dfb5873	0.1227273
121	0x3e6a721e	0.22895095
122	0xbfc070d3	-1.5034431
123	0xbb3b6ab4	-0.0028597536
124	0xbf959882	-1.1687167
125	0x3f88d4e8	1.0689974
126	0x3e8dfa11	0.27729848
127	0x3dba7295	0.09103886

weight f4 [64, 128]
0	0xbcf440be	-0.029816028
1	0xbd571c48	-0.052517205
2	0xbd17b1bb	-0.03703473
3	0xba25389e	-0.0006302687
4	0xbd6a288a	-0.057167567
5	0x3cd913a0	0.026498616
6	0xbd49ebca	-0.04929713
7	0x3d9eb931	0.07750166
8	0xbd70cb33	-0.058787536
9	0x3da67b47	0.08128982
10	0xbc3d312d	-0.011547369
11	0xbce1990b	-0.027538797
12	0xbddada7b	-0.10686203
13	0x3dae3abe	0.08507298
14	0x3cffe93b	0.031239143
15	0xbce8bbeb	-0.028409919
16	0xbd58aee9	-0.052901182
17	0xbd63e283	-0.05563594
18	0x3d8d4243	0.06897404
19	0x3ddd7cf4	0.108148485
20	0x3bb48cdd	0.0055099563
21	0xbd6d4e15	-0.057935793
22	0xbc8973ea	-0.016778905
23	0xbd41e2c6	-0.04733541
24	0xbd0c6aed	-0.03428166
25	0xbd07c8b8	-0.033150405
26	0x3d3ed049	0.046585355
27	0xbc113505	-0.0088627385
28	0xbcdcfac6	-0.026975047
29	0x3c3f82de	0.011688916
30	0x3d51f02b	0.051254433
31	0xbd210916	-0.039315306
32	0x3c4335a3	0.011914643
33	0xbd950c54	-0.07277742
34	0xbc306333	-0.010765838
35	0x3dacbf9b	0.08434983
36	0xbc1ba7d3	-0.009500462
37	0xbd1e40db	-0.03863607
38	0xbbf6ddff	-0.007533788
39	0xbdaf73eb	-0.085670315
40	0xbd8b5f18	-0.06805247
41	0x3d04bac4	0.032404676
42	0x3c472811	0.012155549
43	0x3da8b1b1	0.08237017
44	0x3b9ae211	0.0047266562
45	0xbbafadfd	-0.005361317
46	0x3cc5eb26	0.02415998
47	0x3cd4c18c	0.025971197
48	0xbd011ad0	-0.03151971
49	0xbd712cc8	-0.058880597
50	0xbd338ebc	-0.043837294
51	0xbd6feff3	-0.058578443
52	0x3d33161d	0.04372226
53	0x3db10b67	0.08644753
54	0xbe7d19de	-0.24716899
55	0x3c6aa7bf	0.01432222
56	0xbd5bb243	-0.0536368
57	0xbcd81455	-0.026376883
58	0xbd684bef	-0.05671304
59	0xbdab7a11	-0.08372892
60	0xbd37e1d1	-0.04489309
61	0x3cb421fd	0.021988863
62	0x3d2260cf	0.039643105
63	0x3bb2ad41	0.0054527824
64	0xbad55efb	-0.0016278917
65	0x3d98202b	0.074280106
66	0x3d90aa03	0.07063677
67	0x3dad5aed	0.08464608
68	0xbb18d3a7	-0.0023319514
69	0x3d472aa8	0.048624665
70	0x3d096ef0	0.033553064
71	0x3c2f1a30	0.010687396
72	0x3d8d867f	0.06910419
73	0xbd6e459f	-0.058171865
74	0x3ba0ac3c	0.0049033444
75	0x3c03c0d3	0.008041578
76	0x3e029329	0.1275145
77	0x3afb8de9	0.0019192073
78	0x3d41eaed	0.047343183
79	0xbb4e6c0c	-0.0031497506
80	0xbd4fdd35	-0.05074807
81	0x3d206b10	0.039164603
82	0xbb10ee71	-0.0022114778
83	0xbd2f43d7	-0.042789306
84	0x3db6a295	0.08917729
85	0xba77c5ed	-0.00094517955
86	0xbd4a9d3c	-0.049466357
87	0xba4f9875	-0.0007919141
88	0x3da0b2e5	0.078466214
89	0xbdac2280	-0.08405018
90	0xbd6002a8	-0.054690033
91	0x3bd90144	0.0066224653
92	0x3cc29224	0.023751326
93	0xbd276bab	-0.040874165
94	0xbcc7449a	-0.024324704
95	0x3d0c821f	0.03430378
96	0xbd4b2978	-0.049600095
97	0x3d694a47	0.056955602
98	0xbd6e11b5	-0.058122355
99	0xbc1f2d88	-0.009715445
100	0x3c2b129a	0.010441447
101	0xbd60e988	-0.054910213
102	0xbda6042a	-0.08106263
103	0xbc606951	-0.013696984
104	0xbbadf133	-0.005308294
105	0xbd8fe1cf	-0.070254914
106	0xbd69388e	-0.0569387
107	0x3d9b07e2	0.07569863
108	0xbbb9e94b	-0.0056735626
109	0x3d299fd2	0.041412182
110	0x3d346d28	0.044049412
111	0xbc964fd9	-0.018348621
112	0x3c82753d	0.015925044
113	0x3da7a8fa	0.081865266
114	0xbd41c8ac	-0.047310516
115	0xbe099f79	-0.1343974
116	0x3d766c72	0.060162015
117	0x3d85a2c7	0.06525188
118	0x3d469519	0.048482034
119	0x3d802e07	0.06258779
120	0x3d6fe74d	0.058570195
121	0xbd3a25c4	-0.045446172
122	0x3d8a6ccc	0.067590326
123	0xbd6e5a04	-0.058191314
124	0x3d902855	0.07038943
125	0x3d2ac0fe	0.041687958
126	0x3d8f7992	0.070056096
127	0xbc75a5dc	-0.014993157
128	0x3c768680	0.015046716
129	0x3bb7b63c	0.005606441
130	0xbcd2d359	-0.025735544
131	0x3d5284ae	0.051396064
132	0x3d822751	0.06355155
133	0xbd49d29c	-0.04927312
134	0xbda7e0db	-0.08197185
135	0x3d9f4fcd	0.07778893
136	0x3cc58983	0.024113422
137	0xbdc922a8	-0.09821063
138	0xbdc503cd	-0.096198656
139	0xbb6e4014	-0.0036354112
140	0xbd82c3f4	-0.06385031
141	0xbe18adf1	-0.14910103
142	0xbd420eb4	-0.047377303
143	0x3c8dbd4d	0.01730218
144	0x3cccb161	0.024986925
145	0xbd14f4b6	-0.036366187
146	0xbcb53cd3	-0.02212373
147	0xbe45fa35	-0.19333728
148	0xbd047e70	-0.032347143
149	0x3da23e19	0.079220004
150	0x3c8d9714	0.017283954
151	0xbdc0c70e	-0.09412967
152	0x3e08d3fd	0.13362117
153	0x3d8cf08d	0.06881819
154	0x3d8031b4	0.0625948
155	0x3c99e07a	0.018783797
156	0xbc0fa360	-0.008766979
157	0x3cbd8bfb	0.023138037
158	0x3d9ed71f	0.07755875
159	0x3cec5d5d	0.028853113
160	0x3ca2ba5e	0.019864257
161	0x3dbe79c5	0.093005694
162	0xbd0c7968	-0.03429547
163	0x3c91cfe6	0.017799329
164	0xbc394068	-0.01130686
165	0x3d1760c8	0.036957532
166	0x3d4dc168	0.050233275
167	0xbd3e083a	-0.046394564
168	0x3d799eda	0.06094251
169	0x3d1c1ef5	0.03811546
170	0xbd5a87d1	-0.05335218
171	0xbd39b9ad	-0.04534309
172	0x3dab87eb	0.08375534
173	0xbd6bff20	-0.057616353
174	0x3cf59570	0.029978484
175	0x3d519db8	0.051175803
176	0xbcb4e529	-0.022081928
177	0xbaa2e1ed	-0.001242695
178	0xbd9e2e90	-0.07723725
179	0xbd1d38e7	-0.038384344
180	0xbd816a34	-0.06319085
181	0xbdd51583	-0.10404494
182	0x3d3d5fbe	0.046233885
183	0x3d225cd8	0.039639324
184	0xbd21e9c3	-0.039529573
185	0x3dbcd62e	0.09220539
186	0xbd737481	-0.05943728
187	0xbb9a3c4c	-0.004706895
188	0xbc649d59	-0.01395353
189	0xbb5ded2d	-0.0033863292
190	0xbd81f329	-0.06345207
191	0xbd0939ca	-0.033502378
192	0xbdb7d926	-0.08976965
193	0xbdd00653	-0.10157456
194	0x3d39b18d	0.04533534
195	0x3c8a225e	0.01686209
196	0xbd207bf5	-0.039180715
197	0xbd6c6a28	-0.057718426
198	0x3dec1239	0.11526913
199	0x3d84c512	0.06482901
200	0xbc785eb7	-0.0151593005
201	0x3bbafafb	0.0057061887
202	0xbd01518c	-0.03157191
203	0x3c98f4af	0.018671362
204	0x3d24ee18	0.040266126
205	0xbd0631ab	-0.03276221
206	0xbd02af32	-0.03190536
207	0x3d9f0b86	0.0776587
208	0x3d78a0a7	0.060700085
209	0x3c1ae900	0.009454966
210	0xbe22c52a	-0.15895525
211	0x3b031661	0.0020002353
212	0xbc6ffcc9	-0.014647671
213	0x39006091	0.00012243005
214	0xbd33331d	-0.043749917
215	0xbd4d9a26	-0.050195836
216	0xbd2392fe	-0.039935105
217	0xbd8ffdc5	-0.070308246
218	0xbc0d5376	-0.008625856
219	0x3ded5235	0.11587945
220	0xbca2fae8	-0.019895032
221	0xbcafa7c7	-0.021442307
222	0xbcedc425	-0.029024193
223	0xbe5902cd	-0.21192475
224	0xbc5691ce	-0.013096286
225	0xbde14e0b	-0.11001214
226	0x3ba835c5	0.005133363
227	0xbd558af3	-0.052134465
228	0x3d3ac08a	0.045593776
229	0x3ca57ad1	0.020200165
230	0xbd1fb366	-0.038989447
231	0x3cf77b17	0.030210061
232	0xbd63ad2b	-0.055585068
233	0x3d52f6e4	0.051504984
234	0x3d670702	0.056403168
235	0xbd353df2	-0.04424853
236	0x3a3dfd21	0.0007247497
237	0x3d0332e7	0.032030966
238	0x3b8629be	0.0040943315
239	0x3c2c35c4	0.010510866
240	0xbc0332dc	-0.008007731
241	0xbd8389fc	-0.06422803
242	0x3dbccadc	0.0921838
243	0x3beee7e6	0.007290828
244	0x3caca9b7	0.02107702
245	0x3b31627a	0.0027066753
246	0xbcb5f4ae	-0.022211399
247	0x3d90de52	0.07073654
248	0xbcc2248c	-0.023699068
249	0xbcc5ba23	-0.024136608
250	0xbca436f7	-0.02004574
251	0xbe411a4d	-0.18857689
252	0x3d6a3d98	0.057187647
253	0x3d333152	0.043748207
254	0x3bd50451	0.0065007587
255	0x3cf9e85e	0.03050631

bias f4 [64]
0	0x3ec36037	0.38159344
1	0xbf52b47d	-0.82306653
2	0x3fa7f3bc	1.3121257
3	0x3ee17d92	0.44041115
4	0x3eb57a5c	0.35444915
5	0xbf63687a	-0.88831294
6	0xbf3cf15d	-0.7380579
7	0xbfcc4da2	-1.5961192
8	0x3f3890ae	0.72095764
9	0xbf2029f0	-0.6256399
10	0xbf59a6c3	-0.85020083
11	0x3f68cf6e	0.9094151
12	0xbf30e87f	-0.6910476
13	0x3fcbbcdb	1.5917009
14	0xbfa8e73b	-1.3195566
15	0x3f1b9a4a	0.607823
16	0xbf1510b8	-0.58228636
17	0xbe57bfe3	-0.21069293
18	0x3f46e83a	0.776981
19	0xbf68a417	-0.9087538
20	0xbf815076	-1.010268
21	0x3f470d84	0.77755
22	0xbf39875d	-0.7247217
23	0xbfbc3287	-1.470292
24	0x3f817cfa	1.0116265
25	0x3f119b42	0.5687753
26	0x3f6acc6b	0.9171817
27	0x3f20311c	0.62574935
28	0x3f295e04	0.6615908
29	0x3f7913bc	0.9729574
30	0xbfaf1536	-1.3678348
31	0xbf92173d	-1.1413342
32	0x3f21a030	0.6313505
33	0x3f876620	1.0578041
34	0x3f8ac48b	1.084123
35	0xbf22be1b	-0.6357133
36	0xbf66a4ea	-0.9009539
37	0xbf810abc	-1.0081401
38	0xbf71be58	-0.94431067
39	0x3f3a93e8	0.7288194
40	0x3f2ca4b4	0.6743882
41	0x3f76d5a8	0.96419764
42	0x3f5a5006	0.85278356
43	0x3f5e2fd9	0.8679176
44	0xbf769c31	-0.9633208
45	0x3f162693	0.5865261
46	0x3f8f4b66	1.1194885
47	0xbf660828	-0.89856195
48	0x3f8093f3	1.004515
49	0xbfc5b98c	-1.544725
50	0x3fc1b9c1	1.5134813
51	0xbf2e025d	-0.67972356
52	0x3f3601f1	0.7109671
53	0x3f0eb873	0.557502
54	0x3f37848d	0.7168663
55	0x3f15da92	0.58536637
56	0xbf954563	-1.16618
57	0xbed4cd22	-0.41562754
58	0x3f4b001e	0.79297054
59	0x3f8b2010	1.086916
60	0xbf49188f	-0.785531
61	0x3f756ba8	0.95867395
62	0xbf6bee75	-0.9216073
63	0xbf455f3c	-0.7709844

weight f4 [32, 70, 1]
0	0xbcbc2c76	-0.02297042
1	0xbf8fadd2	-1.1224921
2	0xbf9c0a60	-1.2190666
3	0xbfa83de0	-1.3143883
4	0xbfa6e171	-1.3037549
5	0xbfa31519	-1.2740813
6	0x3da3b560	0.07993579
7	0xbdccedfe	-0.10006331
8	0x3dd2aa72	0.10286416
9	0x3da65d6a	0.08123286
10	0xbb559728	-0.0032591317
11	0x3deb4d8b	0.114893995
12	0xbd8e8f3f	-0.06960916
13	0x3db6e3c2	0.0893016
14	0x3e0b6ab6	0.13614926
15	0x3dd45c62	0.10369183
16	0xbc30d5bb	-0.010793145
17	0x3db66c18	0.08907336
18	0xbc91be76	-0.017791014
19	0xbd3699e1	-0.044580344
20	0x3d859c12	0.06523909
21	0xbc6023ac	-0.01368038
22	0x3db9794b	0.09056338
23	0x3dd6abc3	0.1048198
24	0x3d88c7a8	0.066787064
25	0xbbbe5803	-0.0058088317
26	0x3cf320fe	0.029678818
27	0xbdb83f27	-0.0899642
28	0x3dd62efc	0.1045818
29	0xbdff7a05	-0.12474445
30	0x3d385856	0.04500612
31	0x3e09d71d	0.13460965
32	0x3d01ed53	0.03172047
33	0xbdfa5070	-0.122223735
34	0x3d2df3b1	0.04246873
35	0xbd1eab97	-0.03873786
36	0xbd9d3691	-0.07676423
37	0xbd98d5b5	-0.074626364
38	0x3cb4aa33	0.022053814
39	0x3bb352d3	0.00547252
40	0x3db0a38e	0.086249456
41	0xbdb908a4	-0.09034851
42	0xbca5b0cd	-0.020225907
43	0xbce887eb	-0.028385123
44	0x3b9f3e1d	0.0048596994
45	0x3d891983	0.06694319
46	0xbda01147	-0.078157954
47	0xbd75adcd	-0.059980202
48	0x3dd33f78	0.1031484
49	0x3d19852a	0.03748051
50	0xbda2d57e	-0.07950877
51	0xbd540af2	-0.05176825
52	0xbd5c8f48	-0.05384758
53	0x3cab09af	0.020878641
54	0xbc3dae86	-0.011577254
55	0x3dcbc4f9	0.09949679
56	0xbd9d02c4	-0.07666543
57	0x3d9c989c	0.076462954
58	0xbd0bebbb	-0.034160357
59	0x3c9f9214	0.019478835
60	0xbdb48303	-0.08814051
61	0x3d8eb9f7	0.06969064
62	0x3c5db608	0.013532169
63	0xbe32a62b	-0.174462
64	0x3e2b7d2d	0.1674697
65	0x3d99ebfd	0.07515714
66	0xb8f0fb0f	-0.00011490855
67	0x3c3b14b0	0.0114185065
68	0xbbf44a49	-0.0074551445
69	0x3d3072cc	0.04307823
70	0x3e1dba03	0.15402989
71	0x3fa83214	1.3140283
72	0x3fa423a2	1.2823374
73	0x3fae921a	1.3638337
74	0x3f9a1677	1.2038106
75	0x3fa6fdcb	1.3046201
76	0xbd876897	-0.06611746
77	0xbdbaf0a3	-0.09127929
78	0xbdcc3f1e	-0.09972976
79	0x3df6ea51	0.12056411
80	0x3cede963	0.029041952
81	0xbe06dce8	-0.13170207
82	0xbdef702e	-0.116913185
83	0xbc9fdcb1	-0.019514414
84	0x3d355797	0.044272985
85	0xbc81ac90	-0.015829355
86	0xbdc8ce3f	-0.09804963
87	0xbdb4ec43	-0.08834126
88	0xbc606399	-0.013695621
89	0x3dc4baac	0.09605917
90	0xbcd3e0e6	-0.025864076
91	0x3d716fa2	0.058944352
92	0xbd8186a0	-0.06324506
93	0xbd735496	-0.05940684
94	0xbc09c143	-0.008407894
95	0xbdc3b9bf	-0.09556913
96	0xbda0befc	-0.078489274
97	0x3d2ba988	0.041909724
98	0x3d4fff78	0.050780743
99	0xbddbef2d	-0.107389785
100	0xbdd24100	-0.10266304
101	0x3d7f00e5	0.062256712
102	0xbd9daddc	-0.07699177
103	0x3befc525	0.0073172026
104	0xbd43798c	-0.047723338
105	0x3d6573e3	0.05601872
106	0xbe0bb6fb	-0.1364402
107	0xbd4870a3	-0.048935544
108	0xbda0fd37	-0.07860797
109	0x3c393152	0.011303263
110	0x3cbfbbb5	0.023404935
111	0xbd95fe9e	-0.07323955
112	0xbd55e0b4	-0.052216247
113	0xbb72810c	-0.0037003187
114	0xbb2ff25c	-0.0026847338
115	0xbc84f734	-0.016231157
116	0x3c96c480	0.018404245
117	0x3d935b62	0.07195164
118	0xbd8d5dd3	-0.06902661
119	0xbc307b83	-0.010771635
120	0xbc848128	-0.016174868
121	0xbca2a62a	-0.019854624
122	0x3d99a88b	0.0750285
123	0xbdb5e647	-0.088818125
124	0x3da03422	0.078224435
125	0x3c51b715	0.012799998
126	0xbb9a26a4	-0.0047043134
127	0xbe14b7df	-0.14523266
128	0xbc41950f	-0.0118153235
129	0x3d2683d4	0.040653065
130	0xbc9f36ce	-0.019435313
131	0x3df17609	0.117900915
132	0x3d9e5248	0.07730538
133	0xbd347fc9	-0.044067178
134	0xbd8500af	-0.06494271
135	0xbcdad4d6	-0.026712816
136	0x3d4becb9	0.049786303
137	0xbceff543	-0.029291755
138	0x3d72dee5	0.0592946
139	0xbd7e908e	-0.062149577
140	0xbe95eef0	-0.29283857
141	0xbfa68122	-1.3008158
142	0xbfa444de	-1.2833517
143	0xbfaa5020	-1.3305702
144	0xbfa3c308	-1.2793894
145	0xbf98720b	-1.1909803
146	0xbdfa34ba	-0.12217088
147	0x3c09aa60	0.008402437
148	0x3dffe6dc	0.12495205
149	0x3b650971	0.0034948254
150	0xbcf93715	-0.030421773
151	0x3bf3a38f	0.007435269
152	0x3d3d0ab7	0.046152797
153	0xbca02399	-0.019548224
154	0x3d3694f2	0.04457564
155	0xbda3af06	-0.079923674
156	0xbc51044a	-0.01275737
157	0x3d9265e1	0.07148338
158	0xbd44b3c1	-0.04802299
159	0xbbb7b482	-0.005606235
160	0x3a8e65eb	0.0010864114
161	0xbcea012b	-0.02856501
162	0x3d93263e	0.071850285
163	0xbe0861fa	-0.13318625
164	0xbdcbc691	-0.09949983
165	0x3c65794f	0.014005973
166	0xbda11f9f	-0.07867359
167	0xbd650d4e	-0.05592089
168	0x3db812b8	0.08987945
169	0x3dc79eb4	0.09747067
170	0x3dab4cc0	0.08364248
171	0xbc6b37ba	-0.014356548
172	0x3c15220b	0.009102355
173	0xbdccfbb5	-0.10008947
174	0xbcab4a73	-0.020909524
175	0x3deb91b9	0.11502404
176	0x3de3d695	0.11124913
177	0x3d987361	0.07443882
178	0xbdb3b708	-0.08775145
179	0x3d19d732	0.037558742
180	0x3cddbee6	0.027068567
181	0xbc427999	-0.011869811
182	0x3d3777a9	0.04479185
183	0xbd468c57	-0.048473682
184	0x3e04c0bb	0.12964146
185	0x3d544ecf	0.05183297
186	0xbc80b6d1	-0.015712174
187	0xbddbef6d	-0.10739026
188	0xbd3cc1bc	-0.046083197
189	0xbd6488fa	-0.055794694
190	0x3c1bba02	0.009504797
191	0xbd9822cb	-0.07428511
192	0x3ce6cf8f	0.028175144
193	0xbda2baab	-0.0794576
194	0xbd92dbbf	-0.071708195
195	0x3df2bb36	0.11852114
196	0xbe107461	-0.14106895
197	0xbd8a83bf	-0.0676341
198	0xbb3b003f	-0.0028534082
199	0xbde8c602	-0.11365892
200	0x3d141280	0.036150455
201	0xbda05a3b	-0.0782971
202	0xbd8d0339	-0.0688538
203	0xbd07d355	-0.033160526
204	0xbc62082e	-0.0137958955
205	0xbd967253	-0.07346024
206	0x3a777f8a	0.0009441307
207	0xbc6d02f3	-0.014466035
208	0x3b56ace8	0.0032756869
209	0xbd15ffff	-0.03662109
210	0x3ed2ff54	0.41210425
211	0x3fa6f8aa	1.3044636
212	0x3f9c2285	1.2198035
213	0x3fa49880	1.2859039
214	0x3fa7f085	1.3120276
215	0x3faccd48	1.3500147
216	0x3da214eb	0.07914146
217	0xbc54d23a	-0.012989575
218	0x3d9c31da	0.07626696
219	0x3d726098	0.05917415
220	0xbdfa3d0d	-0.12218676
221	0xbd9be977	-0.07612889
222	0xbe077630	-0.13228679
223	0xbd9fca2c	-0.07802233
224	0x3da1a852	0.07893433
225	0xbc20d807	-0.00981713
226	0xbd7f81e8	-0.062379748
227	0x3cc3958d	0.023875022
228	0xbd91d74b	-0.07121142
229	0x3df0197d	0.117236115
230	0xbd3e33cc	-0.046436116
231	0xbdbe07fb	-0.09278866
232	0xbdbe9325	-0.09305409
233	0x3ded945e	0.116005644
234	0xbcd2946d	-0.02570554
235	0x3d2f093b	0.042733412
236	0x3caec586	0.02133442
237	0xbb116a11	-0.0022188465
238	0x3db5734c	0.08859882
239	0xbc9e33c2	-0.01931179
240	0x3c4ec962	0.012621256
241	0x3de656be	0.112470135
242	0x3ce7a20e	0.028275516
243	0xbcbd40ad	-0.023102129
244	0x3d23900a	0.03993229
245	0x3c96ae40	0.018393636
246	0xbd979a6d	-0.07402501
247	0xbde486a9	-0.11158497
248	0xbd7402d1	-0.059573
249	0xbd0e2450	-0.0347026
250	0x3df827ac	0.12116942
251	0x3d1ef786	0.038810275
252	0x3c729ccb	0.01480789
253	0x3cb198eb	0.021679362
254	0xbd9bf583	-0.07615187
255	0xbc9bec7d	-0.019033665

bias f4 [32]
0	0xbfa7a633	-1.3097595
1	0x3fa9903f	1.3247145
2	0xbfac2256	-1.3447978
3	0x3faa2b54	1.3294473
4	0xbf9384d6	-1.1524913
5	0xbf933a03	-1.1502079
6	0x3fa7df8d	1.3115097
7	0x3facb781	1.3493501
8	0xbf8b60f3	-1.0888962
9	0xbf90b547	-1.1305321
10	0x3fa09ead	1.2548424
11	0x3f9c5e87	1.2216347
12	0xbfb80b11	-1.4378377
13	0x3f9b4b3d	1.2132336
14	0x3fc21ab5	1.51644
15	0x3f99e802	1.2023928
16	0xbf923dd8	-1.1425123
17	0x3fb4c4a8	1.4122515
18	0xbfa42610	-1.2824116
19	0xbf8c7c61	-1.0975457
20	0x3fa0151a	1.250644
21	0xbf878c17	-1.0589627
22	0x3faeb4c1	1.3648912
23	0x3f9588d2	1.1682379
24	0xbf8ce512	-1.1007407
25	0x3fb029a2	1.3762705
26	0x3fa339a2	1.2751963
27	0xbf8e6fa3	-1.1127819
28	0xbf8a981c	-1.082767
29	0xbfaa9220	-1.3325844
30	0xbfb3f1e3	-1.4058193
31	0xbf961f40	-1.1728287

weight f4 [1, 32, 1]
0	0xbf2c48c7	-0.6729855
1	0x3ed7f79b	0.42181095
2	0xbee3dfb5	-0.44506612
3	0x3eab1737	0.3341615
4	0xbeefcd90	-0.4683652
5	0xbf2c18eb	-0.6722552
6	0x3f03e047	0.51514095
7	0x3ef33c82	0.475071
8	0xbec3e0dc	-0.38257492
9	0xbed9fc00	-0.42575073
10	0x3f050255	0.51956683
11	0x3f0a31f7	0.5398249
12	0xbf0d6350	-0.55229664
13	0x3ef771fc	0.4832915
14	0x3ecf8566	0.40531462
15	0x3ed6fefa	0.41991407
16	0xbec5554b	-0.38541636
17	0x3ee0e3cc	0.43923795
18	0xbeed4d9b	-0.4634827
19	0xbebb1d8f	-0.3654599
20	0x3ee79423	0.45230207
21	0xbf106298	-0.5640044
22	0x3f025778	0.50914717
23	0x3eaee586	0.34159487
24	0xbf5576c4	-0.83384347
25	0x3eb3ffea	0.35156184
26	0x3eca7074	0.3953892
27	0xbea5207f	-0.32251355
28	0xbfd4a54a	-1.6612942
29	0xbeefb869	-0.4682038
30	0xbecaaab4	-0.3958336
31	0xbf1014da	-0.56281817
