environment_model_weight/2021_AHU301_envmodel.pth (torch, 68111 bytes, 7 tensors)

weight f4 [128, 37]
00000000: ea16 b6be 3bec c3be e58c 083e ecfb 2439
00000010: ac96 a5be f1ed f43e bcac 47bd c656 c3bc
00000020: 502b 93bd 3403 923c 81ec 93bd 4cb1 5b3d
00000030: 31a9 c13d 1561 fcbb 72e2 663d 4b07 0c3d
00000040: 40c5 bfbb 0c69 85bc 318b babc bfdd c4bb
00000050: 7d7c f0bc 1efd 12bc c1a9 863c f39d 1e3c
00000060: 4c39 98ba 0652 51bc 7d33 5e3d 2dc7 8e3e
00000070: 9bad 9c3b 8ff0 243d 71a2 663b d332 bf3c
00000080: ae8f b13b abd1 d2bb bdfa 34bd f13a 9abd
00000090: 4228 81bd 74db f33e 90c5 06bf 0c06 4d3d
000000a0: b5e5 87be e9b3 e5be 1f23 263f f176 7bbe
000000b0: ab3a 89be 793e 5dbe 579c abbe 693a c5be
000000c0: 1556 ffb8 641e 4e3c 94af 33bd d643 75bc
000000d0: fb01 bbbd a713 523c 9b9a 4ebd 9d8f e1bd
000000e0: d317 983b c939 8cbb 2fb2 a63c aefd 413d
000000f0: db7a 5f3d b4c4 d73b 71ec debb a1cd 893e
00000100: 265d b03e d68b 943d a0f8 dc3d d0aa 5c3e
00000110: 6cd4 013e 807a 1f3d 049d 89bd de0d dabb
00000120: 03ab 003d 46ef 023d c51f 7fbc 152b a63a
00000130: 0845 073f 0a32 2fbf e95d 893e a362 523e
00000140: 59e6 68be 221f c4bd a74e 07bd fa90 993c
00000150: 3938 85bd 0925 b03d 8614 a13d c15b babd
00000160: eedb 80bc 0b26 bd3c 0b88 b0ba 772b 36bd
00000170: 7d42 a1bd 1229 3dbb 5ab0 573d ecdd fa3d
00000180: 8079 91bb 34d5 d339 9b70 3ebc 9e53 48bc
00000190: 6bf1 40bd c80c 1f3d 955a a83c c2a4 d9bd
000001a0: 056b a6bd 6ffa 26bc c32c ae3b 33c8 be3b
000001b0: 71b1 b53c bc63 fb3c 03eb 263c ce56 e13d
000001c0: bbcb 6dbd 5052 25bf 49e4 ea3d 0568 84bf
000001d0: f70f 62be f5cb 4e3b d7dc 2239 a00d 253d
000001e0: bdfc 04be 1410 23bd b123 853c 1577 483d
000001f0: 431d a63c 13e9 80ba 629e 953d dfaf 623e
00000200: c223 99bc dee1 92bd 2718 33b8 c164 2d3a
00000210: b1aa f5bc 4d12 fe3b 3bd6 7f3c 02b1 9e3c
00000220: a668 d5bb ff0e ab3d c45f c23c 889c 053e
00000230: 951c 813d af63 913d 81dc 31bc cd4d 72bc
00000240: 80ab c8bb afdb b3bb 6eaf a7be b2d4 9fbe
00000250: 1424 683e 11f1 babe 0b56 bdbe 752b 063f
00000260: 72bf ae3e 6c6c 39be 1ab8 2b3d 1f43 0e3d
00000270: 1db8 05be 1dde d7bd dd00 cbbc c16b 233c
00000280: 2076 89bd 8be6 10bc b831 98bd 82c9 55bb
00000290: ac28 d6bc 8d4c 2cbd 7848 24bb 9167 19bc
000002a0: d2cd e5bc e835 aebc 8964 d6bb 7b0e 74bc
000002b0: 2fba 29ba ce04 b73a e4d6 ca3d 14f5 2c3e
000002c0: 35a4 cdbc ab97 da3d 7156 d53d 243a 263d
000002d0: 8b59 89bc b3c6 22bc da86 663d b278 393c
000002e0: bb03 d33c e070 37be 63fb 693f c3fb 653f
000002f0: 209d 6a3f aa8f ae3f ba2b 843d df4c 9d3d
00000300: fca6 6ebd be3d 78bc 9efa b53c ce3d 42bd
00000310: eb5f 5f3d 91c4 c03d 4200 223d 8704 2c3d
00000320: ceb4 a1bd 5184 ff3d 5cfb 633d ce97 983d
00000330: 17d1 c8ba 55c0 5a3c 0268 f53d 33db 6d3b
00000340: abeb 863c 9a8b 973c 49de fb3b 9e5f d8bd
00000350: 7321 4e3d f8c9 d0bd 45cb 5abe 0665 66be
00000360: e043 c5bc 464e 6a3b f4e3 d5ba d8f8 a8bc
00000370: 0f41 edbd f35f 8cbd f933 3bbd 4ca4 83bf
00000380: ebf5 25bf 4386 853e f8f7 e03e baa0 193e
00000390: bdc4 873d 0a74 33bd 5c8f 24be 9896 823c
000003a0: 8659 84bd c916 833c 0a57 fe3c d70c 403d
000003b0: e3c9 80bb 89ac c73c 8e98 c3bb 7355 09bd
000003c0: 0701 883d 189e 9ebb e10c 5e3c 07cc a8bd
000003d0: 78de 84bb cce0 89bc a80a fd3b 9551 e83b
000003e0: 8a1a 0e3e 5e6a 1c3e 0114 02be 43a2 e5bc
000003f0: 976d 843d 06be ed3c 1043 71bc 70e1 37bc
-0.35564357 -0.38266167 0.13334997 0.00015734107 -0.32341516 0.47837785 -0.048748717 -0.023845088
-0.071859956 0.017823793 -0.07222844 0.05363588 0.09456099 -0.007702003 0.0563683 0.034186643
-0.0058523715 -0.016285442 -0.02277145 -0.0060078795 -0.029356236 -0.008971481 0.016438367 0.009681213
-0.0011613755 -0.012775904 0.05424832 0.27886334 0.0047814376 0.040268477 0.0035192037 0.023339665
0.0054187393 -0.006433686 -0.044184435 -0.075307734 -0.06306507 0.47628367 -0.52645206 0.050054595
-0.2654244 -0.44863823 0.6489734 -0.24557091 -0.26802573 -0.21605863 -0.33517715 -0.38521126
-0.000121753816 0.012580488 -0.043868616 -0.014969787 -0.09131237 0.012822068 -0.050440412 -0.1101372
0.004641512 -0.0042793495 0.020348636 0.04736107 0.054560523 0.006584728 -0.0068030884 0.26914695
0.34446067 0.07253234 0.10789609 0.21549535 0.12678689 0.038935184 -0.067194015 -0.006654485
0.03141309 0.03196647 -0.015571539 0.0012677634 0.5283971 -0.6843573 0.2682946 0.2054544
-0.2274412 -0.095762506 -0.033033993 0.018745888 -0.06504864 0.08600814 0.07865243 -0.09099532
-0.01572987 0.02308943 -0.0013468278 -0.044475045 -0.0787401 -0.002886359 0.052658416 0.122493595
-0.0044395328 0.00040403905 -0.011623527 -0.012226967 -0.047105234 0.03883055 0.020551005 -0.10627128
-0.08125881 -0.010191544 0.0053153946 0.0058222055 0.022179337 0.030687205 0.010187867 0.11002885
-0.05805562 -0.64578724 0.11469323 -1.0344244 -0.22076403 0.0031554673 0.00015531793 0.040296197
-0.12987037 -0.039810255 0.01625237 0.04894169 0.020277625 -0.0009835087 0.073056 0.22137402
-0.018693808 -0.07171987 -4.269942e-05 0.000661444 -0.029988619 0.0077536465 0.015615041 0.019371513
-0.006512719 0.0835247 0.023727305 0.13047993 0.0630428 0.07099091 -0.010855795 -0.014789057
-0.00612396 -0.005488835 -0.3275103 -0.3121696 0.22670013 -0.36512044 -0.36979708 0.5241006
0.34130436 -0.18107766 0.04192362 0.03473198 -0.13058515 -0.105404116 -0.024780685 0.009974421
-0.06711984 -0.008844028 -0.07431358 -0.0032621329 -0.02614244 -0.042065192 -0.0025067609 -0.009363071
-0.028052244 -0.021265939 -0.0065427464 -0.014896031 -0.0006474582 0.0013963224 0.099042684 0.16890365
-0.025102714 0.106734596 0.10416878 0.04058279 -0.01676633 -0.009935069 0.05628095 0.01132028
0.025758615 -0.17914152 0.9139921 0.8983728 0.91646004 1.3637593 0.06453653 0.076806776
-0.058264717 -0.015151439 0.02221423 -0.047422223 0.054534834 0.09412492 0.039551027 0.041996505
-0.07895814 0.12476409 0.055659637 0.074508294 -0.0015321103 0.01335152 0.119827285 0.0036293983
0.016469797 0.018499184 0.0076864106 -0.105651125 0.05032487 -0.101947725 -0.21366604 -0.22499475
-0.024080217 0.003575222 -0.0016318546 -0.02062647 -0.115846746 -0.06854238 -0.04570386 -1.0284514
-0.64828366 0.26078996 0.43939185 0.15002719 0.06629322 -0.043811835 -0.16070312 0.01594095
-0.06462388 0.016002076 0.031047363 0.046887245 -0.003930317 0.024374263 -0.0059691137 -0.033528756
0.06640821 -0.0048406236 0.013552875 -0.0824204 -0.0040548407 -0.016830824 0.0077222176 0.0070898035
0.13877311 0.15274951 -0.12702943 -0.028031474 0.06466215 0.029021274 -0.014725462 -0.011223182

bias f4 [128]
00000000: 7747 2abf edfb e53e dfe3 cf3e 8fdc 12bf
00000010: 13aa d33e 70c8 7d3f fef2 b9bd 5ac1 84bf
00000020: c07c be3e bc4a 6d3e 7a0b c6bc 052e e6bf
00000030: 9f5d 853f 50da 633e 1fc5 6cbe a7a3 87be
00000040: 4777 2f3f 86f3 cfbf 3ad3 fe3d 35dd 1c3f
00000050: 6361 303f 6bc9 903f 4e55 8b3e ce17 713f
00000060: 9b83 9bbf 1b00 85be aeb1 4abf 0e08 583f
00000070: dd27 58bf fcba 673f 48d9 7b3f ba35 8b3f
00000080: 76ad 7bbf cf8e 983f d83b 8c3f 6c48 b93f
00000090: 91cb a83f 5810 3dbe 1323 a83f 273e 393f
000000a0: 1734 813f 210b 2dbd 9dbe 693f 7e95 a7bf
000000b0: a8a3 ba3e bc67 cc3d adbe 4dbf bdeb 743f
000000c0: 207c b6bf b9de b3bf 2308 1d3f b74c c1bf
000000d0: ff01 873f 4644 163f df7a 8d3f 53d3 033e
000000e0: a0ac 9ebf ea9a 8d3f 502d 4c3f c1e1 813f
000000f0: 25cd 89be 0db8 733f dcf1 693f acf9 84bf
00000100: db97 b5be 40e6 833f 9874 8bbf 756f dc3e
00000110: a77a 7b3f d609 983f 3048 fc3d c22f 23bf
00000120: ee2f 5ebf fbe2 abbf dd5e 34be 46d5 233e
00000130: dfa1 7a3f a179 393f d515 a93e 72fd 0e3f
00000140: e095 7b3f 3288 88bf 8a48 31bf d466 583f
00000150: 6274 7e3e 70bd a9bf 0daf 0d3f eb37 8d3f
00000160: 5dd9 183f 6d54 6d3f 7685 873f aa86 863f
00000170: caae bbbe 2666 dc3f a2a9 b8bf 29c4 b6bf
00000180: 80cc 8b3f daa1 d3bf 0d64 3e3f 42fe 133f
00000190: 83c5 833f 0e05 0c3f 74de 923f f367 47bf
000001a0: aacd babf ed85 a83f 929d b2bf 62a3 d2bf
000001b0: 090a 4c3f 0888 803f 27c6 c63e 541f 773f
000001c0: d030 e6be 307d 123f 77d4 803f 7240 a73f
000001d0: 831a 443f 4cbf 19be 68f5 75bf b481 91bf
000001e0: 4a7c 293f be97 4b3e 43ba 7bbf 8f69 3b3f
000001f0: 0f0c a43e d66d 94bf 6960 933f c2eb 833f
-0.66515297 0.44918767 0.4060354 -0.57367796 0.41340694 0.9913397 -0.0907955 -1.0371506
0.37204552 0.2317304 -0.024175394 -1.7982794 1.0419196 0.22251248 -0.2312207 -0.26492044
0.6854138 -1.6246192 0.12442632 0.61275035 0.688986 1.1311468 0.2721352 0.9417695
-1.2149538 -0.25976643 -0.7917737 0.8438729 -0.84435827 0.9051969 0.9837842 1.0875771
-0.98311555 1.1918582 1.0955763 1.4475226 1.3187124 -0.18463266 1.3135704 0.7236046
1.0094022 -0.04224694 0.9130648 -1.3092496 0.36452985 0.09980723 -0.80369073 0.9567221
-1.425663 -1.4052345 0.6134054 -1.5101537 1.0547484 0.58697927 1.1053122 0.12873583
-1.2396431 1.1062901 0.7975664 1.014702 -0.26914325 0.95202714 0.91384673 -1.0388694
-0.3546742 1.0304642 -1.0894957 0.43053785 0.9823403 1.1878002 0.12318456 -0.6374475
-0.86791885 -1.3428644 -0.17614312 0.15999326 0.97903246 0.72451216 0.3302447 0.55855477
0.98275566 -1.0666564 -0.6925131 0.84531903 0.24849084 -1.3260937 0.5534523 1.103269
0.5970667 0.9270695 1.0587604 1.0509846 -0.3665679 1.7218673 -1.4426768 -1.4278613
1.0921783 -1.6533768 0.74371415 0.5780984 1.0294651 0.5469521 1.1474137 -0.7789299
-1.4594014 1.3165871 -1.3954337 -1.645611 0.7970281 1.0041513 0.38823053 0.9653218
-0.44959116 0.5722227 1.0064839 1.3066542 0.76602954 -0.1501438 -0.96077585 -1.1367707
0.66205275 0.19882104 -0.9833109 0.73207945 0.3204045 -1.1596019 1.1513797 1.0306323

weight f4 [64, 128]
00000000: 435e 9e3c 0e54 313d 8900 223d 249b f73c
00000010: 5ca1 2abc db34 eabc 0e25 7b3c 02d4 9ebb
00000020: 7a60 e6bb 087b 953b 0925 283d 98d4 4e3e
00000030: c834 d53d 1a31 74bd a718 40bc cad9 123c
00000040: ea00 babd 92fc 543e 6ef7 b03a 360c 25bd
00000050: 6006 093d d090 75bd c13f 45bd b71d ebbd
00000060: 0a9e 0a3d a2b0 b8bc f395 4b3c 8009 c5bc
00000070: 8a9f 443c 44c8 83bd 73b2 d6bd 03dc 2f3e
00000080: 8d78 c03c 393a d5bc 821f 8fbd f315 c8bc
00000090: 527c 1fbc 0384 ac3b 77eb 7fbd d394 2a3c
000000a0: 7576 d7bc a4fd e6bd 03f5 44bd 750c 9b3c
000000b0: 8d7a 683c 1490 353d 052c 74bc 8686 9a3c
000000c0: 780a 0a3d 12ec bbbb 968f 323d cd8f 163e
000000d0: e91a 66bb 4dc3 383c abe0 513d 6d64 b3bd
000000e0: fd89 7b3d 6497 51bd a585 f5bd 856b 06bd
000000f0: 48c0 06be 2ae6 9f3d 24c8 743d af0a 8c3d
00000100: a575 b2bc 9868 69bd 17d5 183d 3de8 81bc
00000110: 91e2 073d 7b6e 71b9 b8a2 a8bc 0baf bb3c
00000120: 4494 85bd 551d febc 622f 2fbd 39c0 233d
00000130: 2630 72bd 06d6 773d 40b4 393e e3dd 16bd
00000140: f694 febc 1b17 ce3d 5c78 9a3d 361e 8a3d
00000150: 6e62 1e3d ea4a e23d b6be 25bd 9d53 a2bc
00000160: 66e4 93bd a485 073d 1a55 19be 7cf6 5bbd
00000170: 7699 2bbd 2c57 1ebe b2bf a23d 8069 ec3d
00000180: fa52 c2bd 7a89 033d 0314 a9bd 63d5 e53d
00000190: c6dc fbbd 7569 83bc 463e 5dbd ca14 973b
000001a0: e8be 6d3d 54a3 76bd 7b26 beba 18f4 053e
000001b0: 9f19 36bc 910a 9dbd 6115 073d de68 333d
000001c0: 5d2c 4fbd 0a4a 53bd 02c6 ec3c e5ba 55bd
000001d0: 0bc1 16bc 0b71 8ebc 7a61 e63c 4047 3bbb
000001e0: d6b3 e2bc 8dd6 1ebd 2751 85bc 1ee4 dc3d
000001f0: aeef 173d 3211 bd3c a0a7 523c 31f4 f7bd
00000200: 7613 993c 8945 b9bd 0a3f a03d a637 c4bc
00000210: cb23 3f3d 1815 4b3d b9e1 5fbd 03ee 593b
00000220: 3c90 83bd fa0d ddbc b4ab 8dbc 592f 64be
00000230: 8135 d03d a466 08be afda f93c ef05 9dbd
00000240: 544d 4f3d 165a 383a 8011 6b3d 6ef2 96bc
00000250: 1f74 e93c eeda 25bd 8207 843d 9e03 32bd
00000260: 4c7d 873d 0033 d3bc fda8 2c3e 984f bb3d
00000270: e959 2ebe 27cb d73c 4f63 44bb a9e3 e5bd
00000280: d472 a2bc 823f c83d e0fd b7bd 8538 1b3d
00000290: 86f9 aebd 62e3 23bd 9da6 fcba 8adc ef3a
000002a0: 0cc3 98bd d7b3 f93c 4af9 33bc 4514 32bd
000002b0: 3ac7 0c3d 0560 c33d 3b69 fbbc cf5e 3c3d
000002c0: 760e 413d a3bb c33d 300b 9abc b5bf 39be
000002d0: 0779 c93b e64e fdb9 2dfb 793d 0294 00bd
000002e0: 92eb dd3d 45ee 88bc b34b 99bd 13f6 653d
000002f0: 4f10 65bc 5834 653e be67 28bd 728d 6cbd
00000300: 8db0 ffbd 121f 19bd 231e 36bd f06e 9dbd
00000310: f3c8 e03c 458c c7bd f94c 0cbd e38f 8abd
00000320: c029 2ebd 5cd6 0d3d 41cb ee3b 807f 733d
00000330: 02c3 bcbc c2c0 173e 69ea 80bd 1343 3fbd
00000340: 4306 293d d7a4 bcbd 3b2c cbbd 2eb0 f4bc
00000350: 2802 fdbb 71d5 473d 2faa d1bd 8c6f 8d3b
00000360: e0c2 64bc a7a6 3e3d 13a6 a9bd e403 df3d
00000370: ac3b 313c 8d6f c73d d9c7 f5bd 2323 d5bb
00000380: d4d9 6f3d 98aa 33be 6235 11bd c651 cf3c
00000390: cb26 97bd ba49 a33c adb3 c9bd b709 79bc
000003a0: 34c1 8ebc 698a 2abd 6741 8b3d 2229 71bd
000003b0: 36bb b13d b38b 30be cb0e 163d 7526 5a3d
000003c0: ecfd 933d 533d 7a39 efdf 973d 1a6d 503c
000003d0: b54a a3bc c21e ba3c 9fa3 7dbd 100b 99bd
000003e0: 821a e13c 4ff3 0e3c c343 09bd b547 fb3c
000003f0: 13ac e43c eb99 583d 87da 193d 889e e9bd
0.019332057 0.04329305 0.03955129 0.030225344 -0.010414448 -0.028589657 0.015328659 -0.0048470506
-0.007030544 0.0045617856 0.041050944 0.20198286 0.10410458 -0.05961714 -0.011724628 0.008963058
-0.090822056 0.20799473 0.0013501474 -0.04029485 0.033453345 -0.059952557 -0.048156504 -0.11480277
0.033842124 -0.022545163 0.012425887 -0.024052382 0.012000928 -0.06434682 -0.10483255 0.17173772
0.023494983 -0.02602874 -0.069884315 -0.024424529 -0.00973423 0.0052647605 -0.062480416 0.010411459
-0.026301602 -0.11278847 -0.048085224 0.018926838 0.014189375 0.044326857 -0.014903073 0.018862974
0.03370139 -0.005734929 0.043593965 0.14703293 -0.0035111255 0.011277032 0.05123965 -0.08759389
0.061410893 -0.051169768 -0.11988381 -0.032817382 -0.13159287 0.07807572 0.05976118 0.06837975
-0.021784613 -0.056984514 0.037312593 -0.01585781 0.033175055 -0.00023024708 -0.020585403 0.022910615
-0.0652242 -0.031019846 -0.042769797 0.03997824 -0.05912795 0.060506843 0.18135166 -0.0368327
-0.03107689 0.10063001 0.07542488 0.067440435 0.03866809 0.11049445 -0.04046508 -0.01981526
-0.07221298 0.033086434 -0.1497387 -0.053701863 -0.0418944 -0.15462941 0.07946719 0.1154356
-0.09488483 0.03211353 -0.0825577 0.11222341 -0.122979686 -0.016041497 -0.054014467 0.0046106325
0.05804339 -0.060214356 -0.0014507318 0.13081396 -0.011114507 -0.07668031 0.032979373 0.04380118
-0.050579417 -0.05158428 0.028903011 -0.05218019 -0.0092012985 -0.017387887 0.028122652 -0.0028576404
-0.027673643 -0.03877883 -0.016274048 0.107856974 0.03709381 0.023079488 0.012857348 -0.12107123
0.018686038 -0.09046466 0.07824524 -0.023952316 0.046664994 0.049580663 -0.054658625 0.0033253438
-0.06423995 -0.026984204 -0.017293788 -0.22283687 0.10166455 -0.13320404 0.030499784 -0.07667147
0.050610855 0.0007032467 0.057389736 -0.018426146 0.028497754 -0.04049199 0.064467445 -0.04346048
0.06615695 -0.025781155 0.16861339 0.09146041 -0.17026486 0.026341988 -0.002996642 -0.11225063
-0.019830145 0.09777738 -0.0898397 0.037895698 -0.085436866 -0.04001177 -0.0019275729 0.0018299979
-0.07459077 0.030481262 -0.010984728 -0.04347636 0.034369685 0.09539799 -0.030689826 0.045988854
0.04713293 0.09557273 -0.018804163 -0.18139537 0.006148461 -0.00048314704 0.061030556 -0.03139115
0.10835947 -0.016715178 -0.074851416 0.056142878 -0.013980939 0.22383249 -0.04111456 -0.05775208
-0.12484846 -0.037383147 -0.044462334 -0.07687175 0.02743957 -0.09743551 -0.034253094 -0.067657255
-0.042520285 0.034628257 0.0072874133 0.059447765 -0.023042206 0.14819625 -0.0629471 -0.046694826
0.041265737 -0.09211128 -0.09920546 -0.029869165 -0.0077212043 0.048787538 -0.10237538 0.004316276
-0.013962477 0.04654565 -0.08283629 0.10889414 0.01081745 0.097380735 -0.120010085 -0.0065044328
0.058557346 -0.17545545 -0.0354513 0.025307547 -0.07380446 0.019932617 -0.098487236 -0.01520007
-0.01742611 -0.041635904 0.06799584 -0.058877118 0.08678286 -0.17240791 0.0366352 0.05325933
0.07226166 0.00023864703 0.07415759 0.012721324 -0.019933084 0.022719745 -0.06192362 -0.07472813
0.02747846 0.0087250015 -0.03351189 0.030673841 0.027914083 0.052881163 0.03756192 -0.114071906

bias f4 [64]
00000000: db68 853f e08d 69bf 6a6f 833f 3033 68bf
00000010: afc7 2c3f 023e 503f c09f 0b3f d979 093f
00000020: 99e7 373f eb4a 963f 24da d2bf 6938 7fbf
00000030: b37a 8f3f f533 97bf b0bc 853f 00b5 d4bf
00000040: 8ca7 a9bf ff86 653f 3a9b 5a3f 874c 523f
00000050: 864a a23f 17c9 86bf 0f18 89bf 1c2d 94bf
00000060: a968 393f 5357 60bf 7e85 62bf 1ac2 bfbf
00000070: c26d b63f 4e45 21bd b89a 3abf aa6a 673f
00000080: 0bd9 6a3f 6c22 7e3f 839a a0bf 4d2e a0bf
00000090: 9848 863f e55a 8a3f 5203 803f acf6 9e3f
000000a0: 510f 653f a349 393f 08d4 7e3f c064 643f
000000b0: 407a 1e3f 2f7d 21bf dcb5 8e3f ddcb b63f
000000c0: c8dd 443f 3bc7 84bf 0780 5d3f 8dcf 39bf
000000d0: 8e52 8f3f 1099 b53f ed16 97bf 5b01 4e3f
000000e0: 2ab2 18bf f65b 933f c55f 28bf ad16 5d3f
000000f0: 0630 46bf 6047 223f 2ac9 26bf b377 a0bf
1.0422624 -0.9123211 1.0268376 -0.90703106 0.67492193 0.81344616 0.54540634 0.5370155
0.71837765 1.1741613 -1.6472821 -0.9969545 1.120932 -1.1812731 1.0448208 -1.6617737
-1.3254256 0.8965911 0.85393107 0.8214802 1.2678993 -1.0530118 -1.0710467 -1.1576266
0.72425324 -0.87633246 -0.8848494 -1.498111 1.4252245 -0.039372735 -0.7289233 0.9039713
0.9173743 0.99271274 -1.2547153 -1.251413 1.0490904 1.0808989 1.0001013 1.2419028
0.89476496 0.72377986 0.99542284 0.8921623 0.6190529 -0.6308164 1.1149249 1.4280964
0.7690091 -1.03733 0.8652348 -0.7258232 1.1197069 1.4187336 -1.1803871 0.8047082
-0.59646857 1.1512439 -0.6577113 0.86362725 -0.7741703 0.6339016 -0.651507 -1.2536529

weight f4 [32, 70, 1]
00000000: b75c 06be 8e3f bdbf 5fb5 bebf f9a5 bebf
00000010: 2a76 b8bf 056b bebf b52e 80bd d55d cc3d
00000020: 0cb5 abbd 1c87 c2bd 9d80 d63d 02e1 8b3d
00000030: bd8b 963d 7bbf c93d 0fa2 2d3d 9746 e93c
00000040: 146a 613c c405 6d3d 8fd4 45bd 56fc b53d
00000050: 6d5a 4bbd e146 c0bd df38 a5bc ad2e 8dbd
00000060: 56a6 e63b c19a acbd f402 2dbc 97d7 c8bd
00000070: 58ad c83d 40c6 39bd af3e 503d 318c b4bd
00000080: 6fea 383d cda9 12bc 40d3 b33d 28aa 323d
00000090: 7726 0abc fc0b fb3d de67 493d c81d 1bbe
000000a0: da26 b3bc 2855 83bd 2ab6 9bbd cdc7 883d
000000b0: 3930 8cbd 63e1 f3bd 90ee de3b a2e8 e8bc
000000c0: 40a1 14bc baff ecbc 0c42 d5bd 24b5 80bd
000000d0: e4dc a3bd 1b46 99bd 8f9d e63b b29d 123d
000000e0: fa1e 833d 4124 073d ecb1 ab3d db53 8f3d
000000f0: 8cd3 973d 2d16 92bd 79eb 953d 3fad 93bd
00000100: 3e1e 0fbe 596e b0bd 92a3 083d f136 353d
00000110: dae0 bbbd 8819 d3bd cc55 663e 4595 b13f
00000120: 27be a93f 24c0 a03f b399 ab3f e31f a13f
00000130: 16af b73d f2ac 853d 94a3 ecbd e70c 4f3d
00000140: 60aa ac3d cd7f bd3d f179 dd3d ae4b 7bbd
00000150: d30a 763d 391d e9bc bf81 07be 3a34 85bd
00000160: ed56 a3bc 4657 e7bc 3cfd 8c3c 5d7b 8a3d
00000170: 826b 71bd b7bd 83bd 0b9d bebd 26c1 77bd
00000180: a5a9 a83d 30ba 013d bdf2 1d3d b05e 123d
00000190: 900b 003e 4d6e bf3c a325 f3bc efeb ba3d
000001a0: 59b0 78bb 754f 0f3e efbc 9abd 77e8 9c3d
000001b0: cb87 1abd a37f 03bd 941a dc3d c542 05bd
000001c0: b410 52bd ceec 41bd 225b 97bc afa9 a23d
000001d0: 75fc e73c 60e0 4ebd a1ef c63d 9c6b 7e3c
000001e0: 842d bbbc 8768 85bd 7ac3 2abd cc48 12bd
000001f0: b5c1 b43c f18b 91bc 2975 5f3d e7bb 4c3d
00000200: c0bb cf3d 1dbc bf3d 74ec c63c 81f2 493d
00000210: 03ce 0d3a 4385 c13d a1d9 d8bc 5167 e3bc
00000220: 8480 02be c6dc b33c cf08 0cbd af7a 113d
00000230: 1068 1cbf 6deb c9bf 9b24 d0bf 1184 d0bf
00000240: 0f6c d5bf 01dc d0bf f0c8 15be 62d4 473d
00000250: 3b19 543d 91f4 503d 33ac 5abd 508a 01be
00000260: 2b4f 90bd 5661 753d e2a9 c5bc a64e 25be
00000270: b203 bebd ea39 a7bd cf26 52bc 8903 cd3d
00000280: e3dd b9bd 2df9 3a3e 6802 fa3d 6fb0 dabd
00000290: 2f2d 893d 06ee c43d c4fc acbc cee2 d33d
000002a0: 8c28 be3d 0699 ef3d c2f9 ebbd e0fc 393d
000002b0: b1cc 94bd 1096 a1bd cc0a 42bd 73f2 883d
000002c0: 7b6d 353c e167 e9bd 53d5 7cbc b65e 11be
000002d0: 841d 85bb 9197 7ebd 6450 d03d 096c cabd
000002e0: fb14 cf3c 82b2 02be f80e f5bd 0dcf a2bd
000002f0: afa2 efbb 006d afbd 1126 b8bc 01c3 4d3d
00000300: 3009 9cbd 85e5 29be 44aa 0f3d 7223 61bd
00000310: 6f13 debd 696d 263d 5ed8 dbbd 2ab6 2cbd
00000320: 79f8 e33d dc0a 83bc 4fc1 26b5 953d a7bc
00000330: ed96 853d 9c60 483d 2c19 143d 525c 34be
00000340: e6d2 e13d 8a0b c4bd 227c 1ebf 25a3 cabf
00000350: 5e9c d2bf dc42 bcbf dc22 c9bf 776e c5bf
00000360: 514b 33bc 9990 0a3c 8d33 64bd 7b40 e73d
00000370: 9482 10be 9996 febd dd1b f2bd d65c f8bb
00000380: ab64 32be 4e60 783d 680b dc3c 072c a73c
00000390: 6902 f2bd d212 ef3b a620 72bc f4b9 393e
000003a0: eb85 47bd aa08 2ebe b814 a8bd fc5e acbd
000003b0: 8590 1cbe 60ab 063d 70ee e23d 56cb 053e
000003c0: 1d23 06bd 7295 c2bd 7eef 55bd ba81 9c3c
000003d0: d7c8 21be 6909 03bd b76d 683d 8155 8ebc
000003e0: cd07 483d a1df d9bd 0b22 283d a2f3 113e
000003f0: b08d e6bd 535a 10be 7a5a f1bd 11ea dabd
-0.13121305 -1.478502 -1.48991 -1.4894401 -1.4411061 -1.487641 -0.06258909 0.099788345
-0.08384141 -0.09498426 0.1047375 0.06830026 0.07350872 0.09850975 0.04239088 0.028476043
0.013758201 0.057866827 -0.048298415 0.0888602 -0.049646784 -0.09388519 -0.02016872 -0.06893668
0.0070388718 -0.084279545 -0.010559786 -0.098067455 0.09798688 -0.04535508 0.05084103 -0.08815802
0.04514545 -0.0089516165 0.08780527 0.043619305 -0.008432022 0.12258145 0.04917132 -0.1514808
-0.021869112 -0.06412727 -0.076031044 0.06678734 -0.06845135 -0.119082235 0.006803341 -0.02843124
-0.009071648 -0.028930534 -0.10412988 -0.0628455 -0.08001116 -0.07484075 0.0070378254 0.03579492
0.06402393 0.03299356 0.08383545 0.06998416 0.07413396 -0.07133136 0.073203035 -0.072107784
-0.1397638 -0.08614797 0.033359118 0.04424185 -0.091737464 -0.10307604 0.22493666 1.3873678
1.3261155 1.2558637 1.340628 1.2587856 0.08968942 0.06527127 -0.115546376 0.050549414
0.08430934 0.09252892 0.10814274 -0.06135147 0.060068917 -0.028456317 -0.13233088 -0.06504102
-0.01993891 -0.028239857 0.017210595 0.06761811 -0.058940418 -0.064326696 -0.09307297 -0.060486935
0.08235482 0.031671703 0.03856157 0.035734832 0.1250441 0.023368025 -0.029681033 0.09127032
-0.0037946908 0.13995154 -0.075555675 0.07661527 -0.03772716 -0.032104146 0.10747257 -0.03253438
-0.05128546 -0.047344975 -0.018476073 0.07942521 0.028318623 -0.05050695 0.09713674 0.015528586
-0.022848852 -0.06514078 -0.041690327 -0.035713956 0.022065023 -0.017766925 0.054555092 0.049983885
0.10143232 0.09362052 0.024282672 0.049303535 0.0005409421 0.09449246 -0.026470961 -0.027759226
-0.12744337 0.021955859 -0.034188088 0.03551739 -0.61096287 -1.5774971 -1.6261171 -1.6290303
-1.6673602 -1.631714 -0.14627433 0.04878653 0.051781874 0.051014487 -0.05338688 -0.12650418
-0.0704635 0.05990728 -0.024128858 -0.16143283 -0.092780486 -0.08165343 -0.0128266355 0.1001044
-0.09075525 0.18259116 0.1220749 -0.10678183 0.06698071 0.09615712 -0.021116622 0.10345994
0.092850775 0.11699109 -0.11522247 0.045407176 -0.07265604 -0.0788995 -0.047373578 0.066868685
0.011073465 -0.113967665 -0.01543172 -0.14196286 -0.0040623564 -0.062156264 0.10171583 -0.09883887
0.025278559 -0.12763408 -0.11965746 -0.07949648 -0.0073130946 -0.08565712 -0.022479089 0.0502348
-0.0761894 -0.16591461 0.035074487 -0.054965444 -0.108435504 0.040631685 -0.10734628 -0.042165913
0.11131377 -0.01599639 -6.212112e-07 -0.020415107 0.065229274 0.04892026 0.03615682 -0.17613342
0.11026554 -0.095725134 -0.6190816 -1.5831038 -1.645397 -1.4707904 -1.5713763 -1.5424336
-0.01094325 0.008457326 -0.055713225 0.112915955 -0.14112312 -0.12431068 -0.11821721 -0.0075794263
-0.17421214 0.06063872 0.026860908 0.020406736 -0.11816866 0.0072959447 -0.014778292 0.18137342
-0.0487117 -0.16995493 -0.08207077 -0.08416554 -0.15289505 0.03287828 0.110806346 0.13065848
-0.03274833 -0.09501161 -0.05223035 0.019104827 -0.1579927 -0.031991396 0.056745257 -0.017374756
0.048835564 -0.10638357 0.04104809 0.14253095 -0.112574935 -0.14096956 -0.11784835 -0.10689176

bias f4 [32]
00000000: 0fd2 b9bf 851f b63f 6ef4 d5bf 16cc cbbf
00000010: ed4a 99bf b8a5 a43f a3bf a7bf 9362 b4bf
00000020: 3d8f b93f c1aa b0bf 23d3 dfbf cc0e b8bf
00000030: b853 bd3f c104 97bf af08 8fbf 8cb9 a43f
00000040: 7f9b cbbf 26ca 98bf c272 ac3f b338 b9bf
00000050: 4099 b83f 2547 a43f bb17 acbf 1a4d b63f
00000060: 784f b83f ba89 95bf dc62 8dbf 5c7d b63f
00000070: a8fd a7bf c099 af3f 6502 b03f 5d24 ba3f
-1.451723 1.4228369 -1.6715219 -1.5921657 -1.197599 1.2863073 -1.3105358 -1.4092582
1.4496838 -1.380211 -1.7486309 -1.4379516 1.4791174 -1.1798326 -1.1174525 1.2869124
-1.5906829 -1.1936691 1.3472521 -1.4470428 1.4421768 1.2834212 -1.3444742 1.424228
1.4399252 -1.1682656 -1.1045794 1.4257007 -1.3124285 1.3718796 1.3750731 1.4542347

weight f4 [1, 32, 1]
00000000: 26ca 07bf 0611 053f e8d0 b5be 3100 bebe
00000010: dd1b cfbe 2c54 f13e 958b 0abf c0b2 dfbe
00000020: 1d34 223f 5d67 03bf deee c3be 863e 0abf
00000030: ded4 fc3e 90e0 cabe df74 c6be d0f1 0c3f
00000040: 5c5e c8be eff9 c1be 009f b43e 97d3 08bf
00000050: ad00 cb3e 7429 043f 2066 18bf f4e5 013f
00000060: 6c36 593f b7b3 e6be c962 d1be a051 013f
00000070: afa6 08bf 6c5a f93e b1a9 d33e e729 cd3e
-0.5304283 0.519791 -0.35510945 -0.3710952 -0.40450945 0.4713453 -0.54119235 -0.43691063
0.6336077 -0.51329595 -0.3826818 -0.54001653 0.49381155 -0.39624453 -0.3876104 0.55056477
-0.3913449 -0.37885997 0.35277557 -0.5344786 0.39648953 0.5162575 -0.5953083 0.50741506
0.84848666 -0.45058987 -0.4089568 0.50515175 -0.5337934 0.487018 0.41340402 0.4007103
