environment_model_weight/best_model.pth (torch, 68111 bytes, 7 tensors)

weight f4 [128, 37]
0.14655094 -0.109413125 -0.048178483 -0.16743818 0.05641561 0.124112785 0.14051376 -0.08671252
0.060998484 0.031139093 0.06760285 0.058372464 0.2096174 0.16017619 0.13271314 0.032521844
0.0019535131 -0.12001672 0.004894379 -0.004356469 0.07713831 -0.11335259 -0.06304795 0.04218662
-0.06286495 0.037991975 -0.048080064 -0.03499237 0.0024373531 0.024264833 0.0718225 0.023430668
-0.060106285 -0.030143123 -0.08883484 -0.09849295 0.123975456 0.039223872 -0.1267338 0.060454614
-0.04293881 -0.06634167 -0.07087847 -0.08984411 0.025831109 -0.025336204 0.03132253 -0.014823522
-0.014819278 0.051092725 0.03551054 -0.030741455 -0.032078672 0.020605197 -0.029685019 -0.012041705
-0.001153359 -0.04028339 -0.14907731 -0.016316066 0.060721096 0.01456639 -0.02044719 -0.00021720692
0.012174054 -0.020560645 0.024437092 0.0029297464 0.011994984 0.042817626 -0.008915133 0.010397636
-0.007885684 -0.014035933 -0.02923299 -0.05397494 0.061117314 -0.0030641805 0.06402432 0.03890796
-0.079777986 -0.04749613 0.09723455 0.019278869 -0.0017194788 0.005297234 0.009100174 0.041179318
0.028466228 -0.06501768 0.026664842 -0.0013720164 0.0074545015 0.00034863324 0.04076261 -0.10009905
0.038983375 0.17217657 -0.021745432 0.036251556 0.09477791 -0.0036713986 1.8528151e-06 -0.033381473
-0.026477426 -0.066962115 0.03453836 -0.0048433724 -0.034048278 -0.07039268 -0.012501558 0.08837921
0.022271564 0.2401721 0.07879513 -0.08821004 0.17075457 -0.06464139 -0.04187307 -0.017803287
-0.1847754 -0.03646394 -0.0141733615 0.061839163 0.004594894 -0.013766008 -0.0191902 0.06449103
-0.058010835 -0.015802018 -0.00061548076 -0.032618344 0.082658455 -0.0065797833 -0.01645641 0.006464083
-0.0028160983 0.0053429324 0.012242517 0.052498847 0.031819418 0.009303126 -0.005550023 0.05651401
0.006677145 0.00027835378 0.0040207 -0.13681927 -0.11932203 -0.112622194 -0.27819437 -0.24144775
-0.16078125 0.029747961 0.16089989 -0.030182142 0.06152553 0.031807695 0.047794178 -0.022797225
0.08613325 0.020505387 0.049628932 -0.04440858 -0.014081083 0.005140453 -0.10142638 -0.004687058
0.021501988 -0.021287806 -0.017812049 0.055868074 -0.009042193 0.025758509 0.045838613 -0.0014066733
0.007622463 0.051763903 0.009381346 -0.009937207 -0.036837414 0.026967451 0.017654797 0.1774527
-0.06563361 0.026058339 0.043384742 0.19056708 0.034003627 0.012863256 0.14085884 -0.4120648
-0.008214182 -0.106846556 -0.010562677 -0.013525781 -0.004966612 -0.020258728 0.026714819 -0.025673093
-0.018339543 0.011422067 -0.067644216 0.008787604 0.0017325188 -0.06954627 -0.11807326 -0.025796434
-0.03595248 0.037618496 0.01432504 0.19356345 -0.03161523 -0.03736715 -0.04398078 -0.006785058
0.05984298 0.07810865 -0.051557735 -0.0014024286 -0.021123782 -0.114790216 -0.087333746 0.18990785
0.0018424101 0.0758385 0.1358601 0.09828159 -0.0667279 -0.041892823 -0.04472095 -0.014060562
0.008479216 -0.02134342 0.08857766 0.011721076 0.16874342 -0.026364692 0.03141743 -0.018880488
0.0031839884 -0.0029826933 -0.03178216 -0.109734535 -0.10934289 -0.17995621 0.018644396 -0.012405258
-0.030756764 0.02100658 0.01065861 0.047490038 0.011416253 -0.00173022 0.01634133 0.010132963
00000000: 7311 163e fd13 e0bd cd56 45bd ea74 2bbe
00000010: 0e14 673d d82e fe3d d7e2 0f3e 5596 b1bd
00000020: 8cd9 793d 6917 ff3c 5d73 8a3d f717 6f3d
00000030: f2a5 563e 3a05 243e f4e5 073e a035 053d
00000040: 8306 003b 53cb f5bd 0761 a03b b6c0 8ebb
00000050: b1fa 9d3d 6725 e8bd 491f 81bd e1cb 2c3d
00000060: 57bf 80bd 799d 1b3d 9aef 44bd 2954 0fbd
00000070: 00bc 1f3b 0bc7 c63c ad17 933d acf1 bf3c
00000080: 0232 76bd b6ee f6bc 0aef b5bd acb6 c9bd
00000090: d8e6 fd3d 36a9 203d 81c6 01be 429f 773d
000000a0: 9be0 2fbd 24de 87bd bb28 91bd 3000 b8bd
000000b0: c39b d33c df8d cfbc 0e4c 003d 5cde 72bc
000000c0: 8fcc 72bc 9b46 513d 8073 113d 81d5 fbbc
000000d0: ed64 03bd 3bcc a83c ff2d f3bc 924a 45bc
000000e0: 4e2c 97ba 3200 25bd b9a7 18be 45a9 85bc
000000f0: afb6 783d dea7 6e3c de80 a7bc 0ac2 63b9
00000100: af75 473c cc6e a8bc 4c30 c83c fd00 403b
00000110: 9c86 443c 8961 2f3d c710 12bc d95a 2a3c
00000120: f532 01bc f8f6 65bc 067a efbc d414 5dbd
00000130: 2656 7a3d 6bd0 48bb 2f1f 833d f45d 1f3d
00000140: a462 a3bd 4d8b 42bd e822 c73d b8ee 9d3c
00000150: 2260 e1ba 6b94 ad3b e518 153c a5ab 283d
00000160: 0232 e93c fd27 85bd 3a70 da3c 3bd5 b3ba
00000170: e444 f43b c3c8 b639 b2f6 263d bb00 cdbd
00000180: 08ad 1f3d 0e4f 303e 7a23 b2bc 837c 143d
00000190: ec1a c23d d99b 70bb 3eae f835 03bb 08bd
000001a0: 30e7 d8bc 6f23 89bd 1878 0d3d 27b5 9ebb
000001b0: 3576 0bbd 0a2a 90bd 56d3 4cbc 2900 b53d
000001c0: db72 b63c adef 753e 575f a13d 77a7 b4bd
000001d0: 49da 2e3e b562 84bd 1983 2bbd 33d8 91bc
000001e0: c335 3dbe 365b 15bd 6337 68bc 104b 7d3d
000001f0: c490 963b d38a 61bc c434 9dbc e013 843d
00000200: c59c 6dbd 3c73 81bc 3758 21ba d09a 05bd
00000210: d648 a93d 399b d7bb 98cf 86bc a9d0 d33b
00000220: 4a8e 38bb c413 af3b d794 483c 0809 573d
00000230: 1455 023d 236c 183c f8dc b5bb 3c7b 673d
00000240: f4cb da3b 03f0 9139 14c0 833b 5a1a 0cbe
00000250: 1c5f f4bd 77a6 e6bd 7e6f 8ebe 143e 77be
00000260: d7a3 24be ffb1 f33c f1c2 243e 8a40 f7bc
00000270: 3202 7c3d c948 023d d4c3 433d 3fc1 babc
00000280: a166 b03d eafa a73c b547 4b3d c5e5 35bd
00000290: 58b4 66bc 3f71 a83b a2b8 cfbd e495 99bb
000002a0: f024 b03c c463 aebc 93ea 91bc ecd5 643d
000002b0: b525 14bc 8203 d33c 45c1 3b3d 2060 b8ba
000002c0: dbc5 f93b 6306 543d 38b4 193c abcf 22bc
000002d0: d4e2 16bd d8ea dc3c cba0 903c 29b6 353e
000002e0: ea6a 86bd 4c78 d53c 33b4 313d 0424 433e
000002f0: 6347 0b3d 68c0 523c 4d3d 103e 28fa d2be
00000300: c794 06bc 5ed2 dabd 140f 2dbc 3d9b 5dbc
00000310: f6be a2bb a2f5 a5bc 09d9 da3c 6150 d2bc
00000320: cf3c 96bc 9f23 3b3c 0d89 8abd e2f9 0f3c
00000330: af15 e33a 466e 8ebd 65d0 f1bd 0b53 d3bc
00000340: e842 13bd da15 1a3d 93b3 6a3c 7f35 463e
00000350: f97e 01bd 4c0e 19bd 3125 34bd 3155 debb
00000360: ea1d 753d 6ef7 9f3d 342e 53bd b2d1 b7ba
00000370: c80b adbc 2217 ebbd 09dc b2bd 3477 423e
00000380: 067d f13a 3751 9b3d e91e 0b3e dc47 c93d
00000390: a3a8 88bd cf97 2bbd 512d 37bd 455e 66bc
000003a0: 69ec 0a3c 65d8 aebc 3468 b53d c209 403c
000003b0: 13cb 2c3e c4fa d7bc 90af 003d 41ab 9abc
000003c0: 76aa 503b 4a79 43bb 032e 02bd 80bc e0bd
000003d0: 2aef dfbd 7146 38be 22bc 983c 6c3f 4bbc
000003e0: 9cf5 fbbc fe15 ac3c 73a1 2e3c ea84 423d
000003f0: 3c0b 3b3c 8dc8 e2ba 41de 853c ba04 263c

bias f4 [128]
1.4025906 -0.95442617 1.3069463 0.116211265 -0.6475388 0.5286675 -0.80724776 0.44432303
0.5703094 0.37005666 -0.2643571 0.8118313 0.3728849 0.906891 -1.0085624 -1.2109548
1.9102288 0.69100964 0.08732909 -1.3324702 -1.4459741 -0.546939 0.3230532 0.1533046
1.3306286 1.564489 -0.099909596 -1.5107274 -1.7922415 -0.106818736 0.6553492 -0.019740108
0.16712989 -1.0064677 0.58379745 0.23678485 1.1550703 0.11957259 -1.7096334 0.29329088
0.6654464 1.2596701 -1.4377323 0.10235822 -1.38982 -0.9167875 -0.74881536 1.512685
0.0769416 1.1960837 -0.7765446 -1.4614325 -1.407033 0.0036627785 -0.3359984 0.9364723
0.60893893 1.448149 0.63716716 -0.8772906 1.625784 0.7909216 0.017293211 -0.8680837
-1.4399667 -0.9786345 0.23356166 0.71339387 0.8795249 1.7064269 0.010282766 -0.014804085
-0.17678162 -1.9107965 0.27374366 0.6552539 0.5657558 -0.6039963 -0.7038776 -0.15795255
0.41268286 -0.48936766 -1.537401 -1.5504502 0.8007542 -1.6456766 0.15416417 0.40375268
0.27962452 -0.69870675 0.3259082 0.669287 -0.045785077 1.5635135 -1.4601367 0.16308124
0.3125151 -0.39081445 -1.4850123 0.047882915 0.6156296 -1.6014733 0.11845056 1.553118
1.5174632 -0.36753428 0.2457626 -0.11702201 0.53820235 -1.4758757 -0.42825395 -1.4852223
0.76314557 0.13204227 0.8256217 0.18726678 0.5658077 -0.32414678 0.20822142 0.12664828
-1.0398476 0.05628658 0.32113087 0.6551846 -1.4736116 0.2629644 -1.5522149 1.0644858
00000000: 1788 b33f 4655 74bf 044a a73f 2c00 ee3d
00000010: 1ac5 25bf c156 073f caa7 4ebf 4f7e e33e
00000020: ccff 113f 1178 bd3e d059 87be 2dd4 4f3f
00000030: c5ea be3e 022a 683f 9318 81bf 9100 9bbf
00000040: 6182 f43f 02e6 303f 98d9 b23d 628e aabf
00000050: ae15 b9bf 3204 0cbf 3b67 a53e e2fb 1c3e
00000060: 0a52 aa3f 2d41 c83f 679d ccbd 845f c1bf
00000070: 2b68 e5bf c8c3 dabd f7c4 273f 02b6 a1bc
00000080: 1924 2b3e efd3 80bf c073 153f ba77 723e
00000090: 58d9 933f 79e2 f43d 44d5 dabf 392a 963e
000000a0: b25a 2a3f df3c a13f 9d07 b8bf 30a1 d13d
000000b0: 9fe5 b1bf 96b2 6abf 5db2 3fbf a99f c13f
000000c0: 8f93 9d3d 4519 993f a0cb 46bf 3810 bbbf
000000d0: a819 b4bf 3a0b 703b fb07 acbe a6bc 6f3f
000000e0: 6ce3 1b3f f25c b93f 631d 233f 1e96 60bf
000000f0: b119 d03f d779 4a3f 7eaa 8d3c bc3a 5ebf
00000100: d450 b8bf ca87 7abf ca2a 6f3e fba0 363f
00000110: 8b28 613f 326c da3f 0c79 283c d58c 72bc
00000120: 3e06 35be fb94 f4bf 2128 8c3e b8be 273f
00000130: 5fd5 103f 809f 1abf 5331 34bf 50be 21be
00000140: 2b4b d33e 668e fabe 8ec9 c4bf 2775 c6bf
00000150: 3afe 4c3f 88a5 d2bf 36dd 1d3e acb8 ce3e
00000160: f22a 8f3e 72de 32bf 71dd a63e 6556 2b3f
00000170: 2289 3bbd 3621 c83f c2e5 babf c5fe 263e
00000180: fb01 a03e d518 c8be e214 bebf e020 443d
00000190: e799 1d3f 14fd ccbf 3596 f23d 92cc c63f
000001a0: 3c3c c23f 742d bcbe 31a9 7b3e 3ca9 efbd
000001b0: a1c7 093f 7fe9 bcbf 1a44 dbbe c41b bebf
000001c0: 825d 433f 1736 073e f25b 533f ddc2 3f3e
000001d0: c6d8 103f 91f6 a5be ff37 553e 16b0 013e
000001e0: ba19 85bf c28c 663d 446b a43e 2eba 273f
000001f0: 4e9f bcbf 45a3 863e faae c6bf 1241 883f

weight f4 [64, 128]
-0.112794094 0.006186418 -0.056218978 -0.03870079 0.11405042 -0.24765866 -0.0134237185 0.10871175
-0.15473345 -0.036087263 0.0047249487 0.013090387 0.03716583 0.10742559 0.020191688 0.022803484
0.13205168 0.09128369 0.056994136 -0.023108227 -0.10106036 -0.005238102 0.022784552 -0.0067414264
-0.0145231625 -0.06580336 -0.07255769 0.053065795 0.008913371 -0.02011591 -0.21331054 -0.082217015
-0.14338683 -0.047362454 0.031362668 -0.14581196 -0.10676232 0.056082357 -0.21853998 0.065445095
-0.04549457 0.023866141 -0.010209281 0.00555889 0.0557578 -0.015705742 0.005582648 0.07264994
-0.049300347 -0.023234112 -0.008024217 -0.01485687 0.16174504 -0.09423049 -0.009122892 0.008059273
0.03855131 0.0025095781 -0.014934152 -0.02144337 0.034134414 0.11687838 -0.1337212 -0.0015368002
-0.0934657 0.093995705 -0.1277771 -0.05070817 0.06918304 0.054669708 -0.07516587 -0.023028601
-0.007819118 0.15520692 0.021064004 -0.0467142 -0.044550695 -0.080984995 -0.03936827 0.050226808
-0.069465116 0.099232875 -0.12669453 -0.15548952 0.04740401 0.06074795 -0.0056957123 -0.05010794
0.013800632 -0.04760398 -0.05689737 -0.028925916 -0.02301032 0.040061034 0.10211598 -0.14715527
0.002284349 -0.17473802 -0.044793826 -0.048398703 -0.00049233943 -0.061579153 -0.11001915 0.005683311
0.12510604 -0.025979917 0.07389183 -0.0020262536 -0.010040933 0.27077207 -0.011759089 -0.14826193
0.075227894 -0.11255057 -0.029492093 -0.18124256 -0.03503022 -0.09217581 -0.21798591 0.06879003
0.07217197 -0.09488098 -0.10069481 -0.010283182 -0.06502251 -0.057969373 -0.0816932 -0.22291294
-0.0937543 -0.036687367 -0.05463671 0.012496308 0.06795909 0.001722223 -0.011233501 -0.00844468
0.010233344 -0.027781693 -0.07592587 -0.008350912 -0.06697896 0.13558777 -0.03079749 -0.08111745
-0.19709519 -0.11182626 -0.092003584 0.07997897 -0.00799997 -0.11919864 -0.030697647 0.022934664
-0.07924057 0.025459623 -0.11600572 -0.021908384 0.06664675 -0.01187295 0.070715286 -0.03808339
0.08276601 0.047744792 -0.0144299865 -0.16849303 0.0040402673 -0.05919783 -0.24886817 -0.00435362
0.04861676 -0.076245986 0.09575099 0.13850838 0.11804229 0.04654021 -0.00092234195 -0.029654851
-0.08408013 -0.12015729 -0.073429324 -0.039659366 0.04485458 -0.05663407 0.033204164 -0.033137582
-0.056155756 -0.015691353 0.019862663 -0.013263996 -0.011239409 0.122732334 -0.1076579 -0.050735097
0.05954324 0.20919344 -0.00044167772 0.040734656 -0.096891865 -0.005850051 0.07174313 0.008939748
-0.07070716 -0.021546818 0.011770812 -0.053009734 -0.01830145 0.07475639 -0.012529401 -0.0016728209
0.02061829 0.029603641 -0.08667859 -0.045770545 -0.038445394 -0.0790384 0.052452467 -0.06380629
-0.0069339713 -0.021034913 0.05687701 -0.02831819 -0.041351676 -0.09845246 -0.038141813 -0.025795355
-0.05198447 0.10611315 -0.004278405 -0.03595375 -0.032218732 -0.03484665 -0.09723819 -0.034923527
-0.1746714 0.06769123 0.04382033 -0.0093309935 -0.03509051 -0.090533435 -0.0059924354 0.03971269
-0.08003142 -0.09810975 0.010931963 0.024239097 0.022971042 -0.00959041 -0.0224894 0.046347313
0.015208227 -0.1547239 -0.002612212 -0.08526687 0.031569403 0.013076802 -0.07036913 -0.0026430115
00000000: 9700 e7bd 6fb7 ca3b df45 66bd b884 1ebd
00000010: 4493 e93d 3b9a 7dbe 28ef 5bbc 44a4 de3d
00000020: 7272 1ebe 3dd0 13bd bed3 9a3b 1079 563c
00000030: 333b 183d f301 dc3d 0a69 a53c 5fce ba3c
00000040: 8e38 073e f1f2 ba3d af72 693d 774d bdbc
00000050: bcf8 cebd 62a4 abbb aba6 ba3c 2fe7 dcbb
00000060: 8ff2 6dbc e9c3 86bd 2099 94bd 855b 593d
00000070: 6309 123c 1fca a4bc 146e 5abe 6561 a8bd
00000080: ffd3 12be 22ff 41bd 2476 003d bb4f 15be
00000090: 34a6 dabd 9db6 653d f2c8 5fbe 1408 863d
000000a0: 8458 3abd ed82 c33c d444 27bc 5927 b63b
000000b0: 4a62 643d 54a9 80bc a5ee b63b 7ec9 943d
000000c0: 29ef 49bd 7755 bebc 0178 03bc 3b6a 73bc
000000d0: 7ea0 253e eafb c0bd 2f78 15bc 0a0b 043c
000000e0: fae7 1d3d bc77 243b 60ae 74bc 02aa afbc
000000f0: 87d0 0b3d ef5d ef3d 36ee 08be 756e c9ba
00000100: f26a bfbd d280 c03d 00d8 02be 5fb3 4fbd
00000110: d6af 8d3d 58ed 5f3d 90f0 99bd 7aa6 bcbc
00000120: c21b 00bc 90ee 1e3e 6b8e ac3c 6457 3fbd
00000130: ca7a 36bd 76db a5bd a040 21bd a0ba 4d3d
00000140: ba43 8ebd 9b3a cb3d 36bc 01be a538 1fbe
00000150: b52a 423d d8d2 783d 19a3 babb fc3d 4dbd
00000160: 0c1c 623c 64fc 42bd 370d 69bd 0bf6 ecbc
00000170: 2380 bcbc 0a17 243d 2f22 d13d dfaf 16be
00000180: 04b5 153b 86ee 32be bb79 37bd b83d 46bd
00000190: 5710 01ba 6c3a 7cbd b851 e1bd 113b ba3b
000001a0: cc1b 003e d6d3 d4bc 9a54 973d e5ca 04bb
000001b0: ba82 24bc a3a2 8a3e 32a9 40bc fad1 17be
000001c0: 1511 9a3d ea80 e6bd 6799 f1bc a697 39be
000001d0: d97b 0fbd acc6 bcbd b337 5fbe cae1 8c3d
000001e0: e6ce 933d f650 c2bd 1539 cebd cb7a 28bc
000001f0: 862a 85bd 4b71 6dbd c44e a7bd 4a43 64be
00000200: 4102 c0bd 7e45 16bd beca 5fbd 51bd 4c3c
00000210: 232e 8b3d 37bc e13a b80c 38bc 8e5b 0abc
00000220: c1a9 273c 6f96 e3bc 067f 9bbd 43d2 08bc
00000230: 442c 89bd 85d7 0a3e 054b fcbc e820 a6bd
00000240: 52d3 49be 2b05 e5bd 606c bcbd 04cc a33d
00000250: 4e12 03bc 6b1e f4bd a279 fbbc 7ae1 bb3c
00000260: e148 a2bd b390 d03c 6894 edbd 3679 b3bc
00000270: 177e 883d c386 42bc 2dd3 903d 54fd 1bbd
00000280: 3a81 a93d 0b90 433d c06b 6cbc 7089 2cbe
00000290: 3864 843b 6c79 72bd 4cd7 7ebe d0a8 8ebb
000002a0: 5e22 473d db26 9cbd 1819 c43d 24d5 0d3e
000002b0: 28c0 f13d f2a0 3e3d 52c9 71ba bbee f2bc
000002c0: 3432 acbd 0615 f6bd 1d62 96bd dc71 22bd
000002d0: 70b9 373d 20f9 67bd 1701 083d 46bb 07bd
000002e0: 9403 66bd 278b 80bc 06b7 a23c 3b51 59bc
000002f0: 8025 38bc 175b fb3d bf7b dcbd 9bcf 4fbd
00000300: 9de3 733d ce36 563e fb90 e7b9 62d9 263d
00000310: 3e6f c6bd c9b1 bfbb 10ee 923d 0578 123c
00000320: eace 90bd f482 b0bc 5dda 403c bc20 59bd
00000330: ecec 95bc e119 993d 1e48 4dbc 8e42 dbba
00000340: b0e7 a83c 5683 f23c 8b84 b1bd e579 3bbd
00000350: eb78 1dbd e2de a1bd 66d8 563d dfac 82bd
00000360: 5e36 e3bb 6951 acbc def7 683d 8cfb e7bc
00000370: 6060 29bd 71a1 c9bd 973a 1cbd c850 d3bc
00000380: abed 54bd da51 d93d dd31 8cbb 3d44 13bd
00000390: caf7 03bd 5cbb 0ebd d124 c7bd f90b 0fbd
000003a0: 0fdd 32be b3a1 8a3d f27c 333d 06e1 18bc
000003b0: 11bb 0fbd 9869 b9bd 315c c4bb c6a9 223d
000003c0: 83e7 a3bd c4ed c8bd fa1b 333c 1291 c63c
000003d0: c42d bc3c 1821 1dbc b13b b8bc aed6 3d3d
000003e0: ed2b 793c f16f 1ebe a531 2bbb 66a0 aebd
000003f0: eb4e 013d 1540 563c b11d 90bd 6036 2dbb

bias f4 [64]
0.1476358 1.1088575 1.2985337 -1.4131868 -0.9728013 1.6391668 0.9626544 1.253156
-1.1238981 -0.5497201 -1.198277 -0.6835375 -0.6013358 -1.0229931 1.0470196 -1.0625517
0.67809325 1.2011594 1.2816463 -1.1846617 0.877278 0.90380687 1.0417674 0.66234004
-1.3400148 0.8534061 -0.2539686 1.0510763 -1.4104929 0.93387973 -1.4296602 0.60397816
0.9166618 -0.93518406 1.570802 1.1815865 0.57171285 1.3471128 -1.1604786 0.8634463
-1.008031 0.7117963 -1.2970364 -0.6790228 1.1216377 -0.9659138 1.4084557 1.1880867
-0.69706035 -1.3185349 -1.3011069 1.1864188 1.0238622 1.0356508 0.34902945 1.0582514
-1.5384456 -1.4017752 -0.6276035 -1.3261573 -1.037435 0.9795011 1.0794337 1.1872737
00000000: d72d 173e 0bef 8d3f 5a36 a63f 4ee3 b4bf
00000010: 8209 79bf 38d0 d13f 8570 763f 6a67 a03f
00000020: e5db 8fbf 75ba 0cbf 2461 99bf 50fc 2ebf
00000030: 25f1 19bf 70f1 82bf bd04 863f b201 88bf
00000040: 8597 2d3f 97bf 993f fc0c a43f ffa2 97bf
00000050: 4a95 603f e35f 673f a258 853f 1e8f 293f
00000060: 9b85 abbf d278 5a3f 2c08 82be ab89 863f
00000070: 088b b4bf be12 6f3f 1bff b6bf 509e 1a3f
00000080: 59aa 6a3f 3968 6fbf 0a10 c93f 3a3e 973f
00000090: c65b 123f 316e ac3f 908a 94bf d10a 5d3f
000000a0: 2907 81bf 4838 363f 4a05 a6bf 70d4 2dbf
000000b0: d391 8f3f 2046 77bf 4748 b43f 3a13 983f
000000c0: 8c72 32bf c0c5 a8bf ac8a a6bf 92dc 973f
000000d0: eb0d 833f 3590 843f fdb3 b23e c874 873f
000000e0: c9eb c4bf 5f6d b3bf 9faa 20bf 86bf a9bf
000000f0: acca 84bf 96c0 7a3f e22a 8a3f 96f8 973f

weight f4 [32, 70, 1]
0.050574176 -1.0881101 -1.0487092 -1.2357125 -0.99932325 -0.86845034 0.12042992 0.066807665
0.06686586 0.025725545 0.09703505 -0.16873726 -0.049994808 -0.060999572 -0.014369127 -0.05761964
-0.062044885 -0.027014134 -0.091034174 0.01671419 -0.1004653 0.01930747 0.09090798 -0.032614596
-0.04716244 0.079380244 0.026456026 0.06082279 0.109155096 0.027305672 -0.09839811 -0.01965803
0.030233314 0.001750122 -0.001449385 0.09157938 0.06578673 0.041831333 -0.071165845 0.11119082
-0.012964584 -0.11412334 0.032669168 -0.1129376 -0.038893495 -0.07971421 0.048574958 0.041311238
-0.13188426 -0.018361183 -0.06031218 0.055255506 0.03950231 -0.00033684002 0.084688924 -0.098445825
0.0060332078 0.06329458 -0.121284984 0.09900865 -0.068320595 -0.08204516 0.12159062 0.07478442
-0.092891864 -0.12633261 0.072923124 0.08916037 -0.1584198 0.10480675 0.36906502 1.0313131
1.130354 1.0038404 0.971602 1.1155454 0.040931802 0.025660155 -0.17753741 0.0014247505
0.12955995 0.034512922 -0.17349647 -0.10668093 -0.063138455 0.017451834 -0.013655687 -0.03354732
-0.04621948 0.05037241 0.026535012 -0.07672901 -0.07657225 -0.17598227 -0.08098061 0.18903938
-0.099991925 -0.080380686 0.13615552 0.09606797 -0.14965647 0.108918086 0.08990423 0.10723919
0.16419384 0.13454387 0.031427313 0.00061484514 -0.056527622 0.02575342 -0.0078096464 0.013705218
-0.025278151 -0.13357635 -0.036925245 0.081861645 0.008575183 0.028422726 0.059478413 0.049275927
-0.12250485 -0.0005896554 -0.1910732 -0.07018118 0.0018369117 0.13431016 0.113649964 0.000728938
0.0026286778 0.06030547 0.029557677 0.1478738 -0.10579436 0.1288282 0.013359779 0.04075285
0.03694665 0.066792056 0.1379833 -0.1020728 0.604472 1.357943 1.2418504 1.297292
1.326005 1.3289723 0.05659557 0.028520236 -0.04507246 -0.11732927 0.03683475 0.18635187
0.0036418093 0.12254057 -0.12647066 -0.09367531 -0.047413293 -0.10649212 -0.134386 0.011016866
0.107988685 -0.10241068 -0.07473423 -0.053226385 0.029243521 0.06638039 0.10099761 0.0985653
0.0913224 0.046585936 -0.10255116 -0.02872097 -0.1315983 -0.028413113 -0.022965277 -0.085739836
-0.05997367 -0.02901579 0.11994702 0.025652789 0.31447726 0.06322228 -0.027938608 0.00027992157
-0.062376704 -0.06473666 -0.11866226 -0.01130278 -0.08787405 -0.09174985 0.088601194 0.03820338
0.1590184 0.016064068 -0.093099855 -0.08262055 -0.029880606 0.05010738 -0.052143205 0.012669102
0.063809216 0.2922819 -0.17606013 0.0015985545 -0.15462667 -0.08747706 0.032790266 0.02185727
0.0054907845 0.062228743 0.44085044 1.2118065 1.2445468 1.1805296 1.1183317 1.29305
-0.020960039 0.01354188 0.07839743 -0.038803276 0.045273416 -0.056008942 -0.14528193 0.033851195
-0.061755426 0.13543645 0.026955724 0.12074217 -0.041752454 -0.04450515 -0.16019712 0.13705526
-0.10008586 -0.000786548 0.077030025 -0.042243462 -0.08956096 -0.19162345 -0.033394173 -0.18775049
-0.08288314 -0.009986467 0.036326814 0.0053258827 0.023566257 -0.15445402 0.022404037 -0.13976651
-0.037272897 0.054969322 0.068403505 0.12802427 -0.02836064 -0.078645766 0.07795653 -0.13635436
00000000: de26 4f3d 3147 8bbf 1a3c 86bf d42b 9ebf
00000010: a6d3 7fbf c352 5ebf f6a3 f63d 75d2 883d
00000020: f8f0 883d 61be d23c 50ba c63d 76c9 2cbe
00000030: 5bc7 4cbd b0da 79bd 7d6c 6bbc 9202 6cbd
00000040: c722 7ebd bf4c ddbc 2070 babd 32ec 883c
00000050: c0c0 cdbd b32a 9e3c f72d ba3d e296 05bd
00000060: 672d 41bd 1c92 a23d 4fba d83c 5121 793d
00000070: b58c df3d 25b0 df3c f384 c9bd e009 a1bc
00000080: dbab f73c 5a64 e53a 4af9 bdba f88d bb3d
00000090: 31bb 863d 5557 2b3d 66bf 91bd 03b8 e33d
000000a0: 6869 54bc 7fb9 e9bd 1bd0 053d d44b e7bd
000000b0: c94e 1fbd 3441 a3bd 89f6 463d f935 293d
000000c0: ab0c 07be 316a 96bc e809 77bd 9953 623d
000000d0: 2dcd 213d e799 b0b9 6371 ad3d f79d c9bd
000000e0: 37b2 c53b 97a0 813d 4364 f8bd 0cc5 ca3d
000000f0: abeb 8bbd 4b07 a8bd 8104 f93d 9328 993d
00000100: 173e bebd 565d 01be b858 953d b699 b63d
00000110: cd38 22be eca4 d63d 17f6 bc3e 1102 843f
00000120: 71af 903f d87d 803f e9ba 783f 31ca 8e3f
00000130: 1ba8 273d 3f35 d23c 5ecc 35be b2be ba3a
00000140: 5dab 043e 6c5d 0d3d 0fa9 31be 887b dabd
00000150: bc4e 81bd 26f7 8e3c 1abc 5fbc ea68 09bd
00000160: a350 3dbd 4d53 4e3d f45f d93c 1924 9dbd
00000170: e9d1 9cbd b234 34be 29d9 a5bd 8a93 413e
00000180: 91c8 ccbd a19e a4bd 5a6c 0b3e 49bf c43d
00000190: 8c3f 19be 7210 df3d b51f b83d 38a0 db3d
000001a0: 6e22 283e dec5 093e edb9 003d 8f2d 213a
000001b0: 8289 67bd d6f8 d23c 10e8 ffbb da8b 603c
000001c0: 2014 cfbc 3dc8 08be ed3e 17bd 14a7 a73d
000001d0: ed7e 0c3c c7d6 e83c a39f 733d 8ed5 493d
000001e0: d3e3 fabd 1b93 1aba b1a8 43be 27bb 8fbd
000001f0: 87c4 f03a 9a88 093e 50c1 e83d 3316 3f3a
00000200: e545 2c3b de02 773d f122 f23c 3b6c 173e
00000210: b7aa d8bd 8aeb 033e f9e2 5a3c 76ec 263d
00000220: 5f55 173d 46ca 883d 7f4b 0d3e 8b0b d1bd
00000230: adbe 1a3f 14d1 ad3f f4f4 9e3f aa0d a63f
00000240: 88ba a93f c41b aa3f c2d0 673d 45a3 e93c
00000250: e69d 38bd 544a f0bd 09e0 163d 06d3 3e3e
00000260: 6cab 6e3b 8df6 fa3d 8681 01be d7d8 bfbd
00000270: 7134 42bd 8a18 dabd 7c9c 09be 1680 343c
00000280: 2c29 dd3d b1bc d1bd 430e 99bd e903 5abd
00000290: 1c90 ef3c 71f2 873d d6d7 ce3d 9bdc c93d
000002a0: 3d07 bb3d e5d0 3e3d 5806 d2bd 3d48 ebbc
000002b0: b4c1 06be 9ec2 e8bc ad21 bcbc 5e98 afbd
000002c0: f3a6 75bd 86b2 edbc c9a6 f53d cc25 d23c
000002d0: 2a03 a13e af7a 813d 82df e4bc 70c2 9239
000002e0: b77e 7fbd a794 84bd 3305 f3bd 4c2f 39bc
000002f0: 4ff7 b3bd 58e7 bbbd 8b74 b53d 267b 1c3d
00000300: b8d5 223e cb98 833c 23ab bebd f734 a9bd
00000310: 2cc8 f4bc 653d 4d3d 1d94 55bd 1192 4f3c
00000320: 68ae 823d f9a5 953e 1b49 34be 9786 d13a
00000330: 7456 1ebe 2c27 b3bd 164f 063d 040e b33c
00000340: 0aec b33b 91e3 7e3d 26b7 e13e 7a1c 9b3f
00000350: 4f4d 9f3f 981b 973f 7e25 8f3f aa82 a53f
00000360: 63b4 abbc c3de 5d3c d58e a03d 2ff0 1ebd
00000370: 9e70 393d a269 65bd c9c4 14be 8da7 0a3d
00000380: 42f3 7cbd daaf 0a3e 40d2 dc3c ac47 f73d
00000390: 9f04 2bbd 084b 36bd b70a 24be 3758 0c3e
000003a0: d1f9 ccbd 5830 4eba ebc1 9d3d 7b07 2dbd
000003b0: bd6b b7bd f038 44be 54c8 08bd aa41 40be
000003c0: a3be a9bd 479e 23bc 6dcb 143d be84 ae3b
000003d0: 060e c13c 3229 1ebe ac88 b73c f41e 0fbe
000003e0: 77ab 18bd 8327 613d 2317 8c3d cb18 033e
000003f0: 9354 e8bc 0811 a1bd aca7 9f3d 7aa0 0bbe

bias f4 [32]
-1.0021887 0.9226672 1.4209795 1.189964 1.1874028 -1.0943067 1.4620794 1.2188919
1.2220964 1.091271 1.0243517 1.3197054 1.2243762 -1.1163908 1.2038242 -1.1365561
1.0910152 1.0171721 -0.99240464 -0.96046984 -1.002255 1.1625268 -0.9776403 1.1858754
1.1347706 -0.9632661 -1.0756285 -1.2393415 -1.3852036 -1.135009 1.2293423 1.2070818
00000000: b847 80bf eb33 6c3f a8e2 b53f be50 983f
00000010: d1fc 973f 3e12 8cbf 6b25 bb3f a604 9c3f
00000020: a86d 9c3f c5ae 8b3f f51d 833f 1bec a83f
00000030: 5cb8 9c3f e5e5 8ebf e916 9a3f ac7a 91bf
00000040: 63a6 8b3f b232 823f 3b0e 7ebf 5ae1 75bf
00000050: e449 80bf aecd 943f a246 7abf c4ca 973f
00000060: 2a40 913f 9b98 76bf 32ae 89bf bea2 9ebf
00000070: 5a4e b1bf fa47 91bf 175b 9d3f a881 9a3f

weight f4 [1, 32, 1]
-0.30982414 0.4341426 0.2577206 0.7972483 0.30658922 -0.34634244 0.291389 0.31874165
0.24082021 0.4651902 0.3513191 0.2920543 0.32227916 -0.4033474 0.34078795 -0.41813934
0.4748111 0.28328407 -0.808328 -0.27538073 -0.47418264 0.35567576 -0.3606073 0.42651346
0.25992084 -0.31269023 -0.35702306 -0.3270081 -0.42114538 -0.4451258 0.34771264 0.20413043
00000000: 45a1 9ebe f047 de3e f4f3 833e 7718 4c3f
00000010: 43f9 9c3e cc53 b1be f030 953e 1b32 a33e
00000020: 9399 763e 692d ee3e 19e0 b33e 2488 953e
00000030: c601 a53e 8d83 cebe c27b ae3e 5c16 d6be
00000040: 711a f33e 9c0a 913e 95ee 4ebf b4fe 8cbe
00000050: 11c8 f2be 221b b63e 85a1 b8be f95f da3e
00000060: 5814 853e ef18 a0be bacb b6be 9b6d a7be
00000070: 5ea0 d7be 87e7 e3be 6407 b23e 9107 513e
