environment_model_weight/best_model.pth (torch, 67703 bytes, 7 tensors)

weight f4 [128, 37]
0.11675464 -0.117785685 -0.10411703 0.049638897 -0.45914155 0.08057187 -0.14609174 -0.03741958
0.0028928895 -0.0014170493 -0.065505385 -0.019312818 -0.09676359 -0.049748253 -0.13640092 -0.17860061
0.015880568 0.17041923 0.1472005 0.18634817 0.09083433 0.014358696 0.022829143 0.007552603
0.013254894 0.036020342 -0.21574077 0.03818754 0.010349771 -0.0068208557 -0.0006791423 -0.007074158
0.045238998 -0.0028355045 0.042477638 -0.08407606 0.0048197773 -0.4911882 0.6334757 0.7968463
1.0035549 0.29629526 0.7967532 -0.09418279 0.037973702 0.0024902364 0.015421007 0.00048338596
-0.013686966 0.0025210734 -0.010882751 -0.018055806 -0.034402754 0.30663827 0.1597873 0.011516169
0.17737728 -0.0052970895 0.029041482 -0.00021787705 0.011921908 0.023147093 0.026859254 -0.07926129
-0.051981103 -0.022070441 -0.051801056 -0.05339858 0.02632603 0.061045997 0.02581878 0.002688566
0.08630572 -0.05631101 0.026411735 0.4053536 -0.102201395 0.18314695 -0.09362605 0.17603575
-0.22654836 -0.03575464 -0.05793156 0.00869071 -0.11152968 -0.025683777 -0.09165178 -0.12767705
0.021175094 0.08274552 0.0078033335 0.019037336 -0.024984488 -0.043070603 -0.010323127 -0.010863088
-0.031621944 -0.0040314062 0.013374089 -0.024199186 0.1767315 -0.053619005 -0.0703982 -0.026001463
-0.05514501 0.00904704 0.058920372 0.030197352 -0.0004751182 0.01827118 0.06356412 -0.026419459
-0.58460706 -0.8670275 -0.51658535 0.61948717 -0.82526994 -0.29697737 -0.036011856 -0.03806395
-0.05533405 -0.043270446 -0.012749568 -0.07984163 0.03962811 -0.0013172165 -0.011790052 0.10378793
0.18757331 -0.1312149 -0.11707711 0.011354526 0.013932905 0.018777285 0.013192042 -0.007835174
0.021709595 -0.052121013 0.059899967 0.033243675 0.04837731 0.0599548 -0.059018426 0.033258677
0.14704758 0.01737195 0.37158597 0.30809978 -0.117083386 0.1643982 -0.021887466 0.085132375
0.004906596 -0.10167681 0.1613003 -0.035526164 -0.0028701525 0.00014852121 -0.046499483 0.009490182
0.059420608 0.02756257 0.06545828 0.042284686 0.060004156 0.02312121 0.001328177 0.042477336
-0.041113272 0.01625286 0.0103885 0.0045961593 0.018052114 -0.03058049 -0.07653663 0.015994119
0.040909156 0.010713627 0.027552677 -0.014892414 -0.02627998 0.0011339519 0.03463826 -0.027393267
-0.17036994 -0.3923478 1.375308 1.3052027 0.37045908 1.3828634 0.033049017 -0.22666578
0.023380248 -0.019551244 -0.011818817 -0.031075193 -0.04596541 -0.12517041 -0.082156405 -0.041670054
-0.07249111 0.20877059 0.29093882 0.11414201 -0.23059733 -0.08389906 0.037179194 0.01402852
0.056014188 0.027831873 0.0439749 0.04294264 0.021652853 -0.004483986 -0.04482217 0.016313665
-0.018691428 -0.044484664 -0.029283479 -0.00025570253 0.06902883 0.17193212 0.13339502 -0.41537955
0.3074523 0.5347432 -0.46226275 -0.23688398 0.099784166 -0.08368168 -0.0431614 -0.02666003
-0.14495128 -0.0046862336 -0.04297062 -0.062673576 -0.034997325 0.010414557 -0.031815026 0.04542576
0.15631254 0.008406891 0.06698054 -0.011539358 0.014232551 -0.011568697 0.007135963 0.0036421064
0.059910048 0.09897202 0.08887927 0.109428935 0.08342809 -0.036369782 0.061544947 0.002216588
00000000: 0f1d ef3d 9f39 f1bd 4f3b d5bd 2852 4b3d
00000010: 9a14 ebbe dd02 a53d 1399 15be 4645 19bd
00000020: a296 3d3b 49bc b9ba b027 86bd ea35 9ebc
00000030: fd2b c6bd d3c4 4bbd afac 0bbe 14e3 36be
00000040: f717 823c 6182 2e3e babb 163e 0ed2 3e3e
00000050: 5907 ba3d bc40 6b3c 2f04 bb3c d37b f73b
00000060: 0e2b 593c 118a 133d 26eb 5cbe 8a6a 1c3d
00000070: 1692 293c 7c81 dfbb 7808 32ba 57ce e7bb
00000080: 874c 393d dfd3 39bb 08fd 2d3d 1230 acbd
00000090: 39ef 9d3b 057d fbbe 772b 223f 1efe 4b3f
000000a0: 7d74 803f 03b4 973e 05f8 4b3f e8e2 c0bd
000000b0: 508a 1b3d 3c33 233b 64a8 7c3c f76e fd39
000000c0: 4c3f 60bc 9838 253b 914d 32bc c5e9 93bc
000000d0: e7e9 0cbd b1ff 9c3e 489f 233e 50ae 3c3c
000000e0: 64a2 353e 3593 adbb 67e8 ed3c ed75 64b9
000000f0: 1b54 433c f99e bd3c f007 dc3c be53 a2bd
00000100: 23ea 54bd 12cd b4bc 582d 54bd 78b8 5abd
00000110: b0a9 d73c 5e0b 7a3d e881 d33c a732 303b
00000120: 0ec1 b03d 60a6 66bd 6c5d d83c 828a cf3e
00000130: f74e d1bd e08a 3b3e 04bf bfbd b742 343e
00000140: 4bfc 67be 7573 12bd a549 6dbd 7b63 0e3c
00000150: ac69 e4bd c966 d2bc eeb3 bbbd c6bd 02be
00000160: 6477 ad3c 7c76 a93d 1bb3 ff3b 30f4 9b3c
00000170: 45ac ccbc cd6a 30bd 5522 29bc 18fb 31bc
00000180: 0386 01bd e319 84bb ff1e 5b3c 5f3d c6bc
00000190: 1af9 343e 9a9f 5bbd ee2c 90bd 0501 d5bc
000001a0: bcdf 61bd 093a 143c 7d56 713d 7060 f73c
000001b0: 4919 f9b9 71ad 953c e82d 823d 9f6d d8bc
000001c0: cfa8 15bf 84f5 5dbf f03e 04bf b696 1e3f
000001d0: e444 53bf 6b0d 98be 2b81 13bd f2e8 1bbd
000001e0: f5a5 62bd 5a3c 31bd 90e3 50bc 0284 a3bd
000001f0: 1651 223d 74a6 acba 102b 41bc c48e d43d
00000200: 3813 403e 335d 06be 20c6 efbd 5508 3a3c
00000210: d746 643c d2d2 993c 6f23 583c 1a5f 00bc
00000220: 52d8 b13c d87c 55bd ab59 753d 852a 083d
00000230: 4927 463d 2a93 753d 4ebd 71bd 403a 083d
00000240: a493 163e 9f4f 8e3c 8440 be3e 41bf 9d3e
00000250: 6ac9 efbd 0058 283e 584d b3bc e259 ae3d
00000260: 83c7 a03b ee3b d0bd e82b 253e e283 11bd
00000270: 2b19 3cbb 5cbc 1b39 3e76 3ebd b57c 1b3c
00000280: 0663 733d e6ca e13c fe0e 863d b532 2d3d
00000290: ebc6 753d b168 bd3c 3a16 ae3a b7fc 2d3d
000002a0: 6466 28bd b824 853c 8734 2a3c 619b 963b
000002b0: 07e2 933c f083 fabc 3dbf 9cbd 1906 833c
000002c0: 5c90 273d 3588 2f3c 27b6 e13c 50ff 73bc
000002d0: 1d49 d7bc 1da1 943a d9e0 0d3d d867 e0bc
000002e0: 7575 2ebe d0e1 c8be 180a b03f e210 a73f
000002f0: d0ac bd3e ab01 b13f 685e 073d 131b 68be
00000300: ef87 bf3c ee29 a0bc b6a3 41bc 6791 febc
00000310: 3a46 3cbd ac2c 00be 9e41 a8bd 38ae 2abd
00000320: 3876 94bd f5c7 553e eff5 943e 49c3 e93d
00000330: b521 6cbe 45d3 abbd 3649 183d e1d7 653c
00000340: 226f 653d abff e33c 061f 343d 9fe4 2f3d
00000350: 5361 b13c 67ee 92bb 7497 37bd 3ca4 853c
00000360: c41e 99bc 8d35 36bd e8e3 efbc d00f 86b9
00000370: fd5e 8d3d f90e 303e b498 083e a1ac d4be
00000380: 636a 9d3e eee4 083f b4ad ecbe b791 72be
00000390: a45b cc3d 4d61 abbd 02ca 30bd 2366 dabc
000003a0: 1c6e 14be fa8e 99bb f601 30bd 015b 80bd
000003b0: 5b59 0fbd d1a1 2a3c 7950 02bd 5d10 3a3d
000003c0: 6510 203e 0ebd 093c 182d 893d 930f 3dbc
000003d0: a52f 693c a28a 3dbc ccd4 e93b 68b0 6e3b
000003e0: 3d64 753d d8b1 ca3d 5606 b63d 471c e03d
000003f0: 59dc aa3d 7bf8 14bd 8e16 7c3d 2d44 113b

bias f4 [128]
0.07170839 -0.50866115 1.0530593 -0.7854889 -1.4401677 -0.023896255 0.48778033 -1.2798907
1.3058374 0.64025 -0.10811477 0.5983685 -0.0040651737 -1.321214 0.4512929 -1.3121789
-0.1257133 -0.34991884 0.2733747 0.53691155 -0.010456356 0.47075343 -0.31100902 -0.76480407
0.41837797 -2.006128 -1.3543828 -1.4132751 -0.2691071 -1.3956277 -1.2301588 0.6115537
1.2809368 0.23681559 0.28845406 0.45482188 -0.046799283 0.6093164 0.09006284 0.3188665
0.082561865 0.60664046 1.7091577 0.53622055 1.6681101 0.404793 0.17864744 1.4524877
-0.16557235 -1.5878661 0.1603234 0.42203188 0.36943135 -1.38103 0.112443276 0.7284451
-0.41077277 -0.01998207 1.1982856 -1.435025 0.048079737 -1.3721042 -0.14807771 -1.1468021
0.4795622 0.6651297 1.1104044 0.310342 1.2177945 -1.7072972 -0.17167112 -1.281792
0.9351073 0.22034527 0.03505972 -0.33754256 0.028013762 1.6138386 0.017402316 1.2164932
-0.45422775 -1.198689 -1.3722343 0.79880655 0.03457279 0.78826606 0.1387208 -0.9469515
-1.3434901 -1.423691 0.491414 0.04777014 0.77361465 -0.14363773 -1.3897399 -0.268539
0.101530455 -0.6587755 0.56600744 -1.4124396 1.2820336 -1.5625346 0.35749766 -0.02629666
0.3285461 0.07379695 1.5638455 1.3204842 1.7796212 0.07207204 1.5049261 -0.15666167
1.1161215 -0.05131197 -0.0141431885 0.24791613 -0.7903209 0.20744683 -0.3902257 -1.4015224
-0.21041429 -1.3991942 0.10436592 0.30024052 0.2429289 -1.1433268 0.30892083 0.51592386
00000000: d9db 923d 9e37 02bf a6ca 863f cd15 49bf
00000010: 6a57 b8bf 14c2 c3bc 58be f93e 75d3 a3bf
00000020: ae25 a73f 6de7 233f 476b ddbd ae2e 193f
00000030: 2635 85bb 8a1d a9bf dd0f e73e 7af5 a7bf
00000040: fdba 00be 9028 b3be c5f7 8b3e 0973 093f
00000050: 2351 2bbc 9806 f13e 933c 9fbe 33ca 43bf
00000060: a335 d63e 6764 00c0 6a5c adbf 33e6 b4bf
00000070: 68c8 89be eea3 b2bf d875 9dbf c98e 1c3f
00000080: bdf5 a33f c97f 723e 40b0 933e 6ade e83e
00000090: 9bb0 3fbd 29fc 1b3f de72 b83d 7842 a33e
000000a0: 3216 a93d ca4c 1b3f aec5 da3f c045 093f
000000b0: a284 d53f 0741 cf3e 5bef 363e 1eeb b93f
000000c0: cc8b 29be 323f cbbf d12b 243e 9014 d83e
000000d0: 1b26 bd3e 97c5 b0bf a948 e63d 617b 3a3f
000000e0: cf50 d2be 70b1 a3bc 6c61 993f e6ae b7bf
000000f0: 42ef 443d 1ca1 afbf afa1 17be 69ca 92bf
00000100: 2d89 f53e f145 2a3f bb21 8e3f 26e5 9e3e
00000110: b1e0 9b3f b788 dabf 8eca 2fbe c311 a4bf
00000120: 3163 6f3f 31a2 613e c89a 0f3d 61d2 acbe
00000130: 1e7d e53c 4392 ce3f 4d8f 8e3c 0db6 9b3f
00000140: 8a90 e8be a46e 99bf 60a5 afbf 967e 4c3f
00000150: 339c 0d3d cecb 493f d30c 0e3e 6a6b 72bf
00000160: 7cf7 abbf 823b b6bf 9e9a fb3e 9faa 433d
00000170: 9c0b 463f c515 13be ffe2 b1bf f27d 89be
00000180: 33ef cf3d 83a5 28bf dde5 103f d2ca b4bf
00000190: ad19 a43f 2201 c8bf ef09 b73e 186c d7bc
000001a0: 3237 a83e db22 973d 172c c83f a005 a93f
000001b0: a1ca e33f 819a 933d 6ba1 c03f eb6b 20be
000001c0: 12dd 8e3f 802c 52bd d5b8 67bc badd 7d3e
000001d0: 7852 4abf f16c 543e aacb c7be 1665 b3bf
000001e0: d876 57be cc18 b3bf cdbd d53d 20b9 993e
000001f0: 5bc2 783e 8858 92bf df2a 9e3e 9613 043f

weight f4 [64, 128]
-0.0039452966 0.1043093 0.0148427505 -0.045521263 -0.029441658 -0.038254086 -0.051618528 0.022510951
-0.08112561 -0.020075524 0.10602607 -0.01953226 0.08368466 -0.071823455 -0.03842428 -0.011150252
0.034562744 0.06843713 -0.07382114 0.08202851 -0.04914971 -0.10392719 0.013905223 0.057868566
-0.13408536 0.10771013 0.044249073 0.040836707 0.045835137 0.0547876 -0.06729836 -0.013789581
-0.06464409 0.027013099 0.0030658506 0.054345846 0.067802325 -0.003924989 -0.09075986 -0.018917127
-0.010129041 0.10245232 -0.12756974 -0.13352953 -0.03555603 -0.056071557 -0.011590937 -0.048757426
-0.030234903 0.13012369 -0.0870672 0.01855584 -0.04387738 0.16556722 0.0049402285 -0.037518404
0.105782576 -0.09183088 -0.073368736 -0.0016370518 -0.007909853 -0.028545432 -0.035573795 0.14551331
0.026842559 0.038708616 -0.00083721953 0.015538475 0.06226184 0.040355675 -0.041550998 -0.0049983324
0.032234985 0.052735735 0.062387206 -0.051787734 -0.12735824 -0.081532896 0.06138238 0.038954157
-0.06365326 -0.025531609 -0.08153359 -0.000119789656 -0.06582632 0.009529113 0.028923882 0.02388199
-0.02751097 0.04991952 0.035493728 -0.035069898 0.014778326 -0.1160363 0.045610838 -0.12043222
-0.07144461 -0.014823291 0.10244098 0.086195536 0.011699966 0.12207027 -0.030912437 0.055979617
-0.03594219 -0.03404221 -0.013632179 -0.055678315 0.027273588 0.049092706 -0.046930943 -0.07847198
0.02579852 -0.0029791025 0.01763002 -0.027518477 0.0034685654 0.035545442 0.087289296 0.06976156
0.066759504 0.0369772 -0.04892665 0.03974052 -0.03246877 -0.034326196 -0.0025006516 -0.020203652
-0.0031147765 -0.104668304 -0.0043541817 0.016628098 -0.08717158 0.042250358 -0.010733119 0.009461602
0.004346526 0.061747734 0.06338593 0.07027351 -0.009202527 0.045051675 -0.009336302 0.0108277835
0.011009317 -0.25004536 0.078432955 0.08135177 -0.029327795 -0.16376767 -0.026237542 -0.03701212
0.23120984 -0.42907715 0.031932216 0.035864502 0.031878103 0.020613806 -0.14065486 -0.11444968
-0.005592178 0.019021967 0.080170706 0.025407521 -0.03715013 0.10659006 0.01213001 0.029850373
-0.43090773 0.2756097 -0.117650285 -0.030553967 -0.08469324 -0.039646413 0.06546797 -0.0379706
0.041888896 0.03687249 -0.008714677 -0.018737564 0.19308634 0.060466286 0.03789985 -0.06673354
-0.06257556 -0.06966096 0.040080477 0.061012696 0.046306383 -0.07406385 -0.020210404 -0.029820314
-0.03883808 -0.18874736 -0.00826905 -0.004281456 -0.5127187 0.07171737 -0.022721155 0.052759077
0.01434359 -0.032209754 -0.012120293 -0.12195522 -0.0045418777 -0.025850004 -0.43621936 0.01727101
-0.30265194 0.014139496 -0.06607944 0.018448956 0.17565367 0.05555504 -0.076027505 -0.2035104
0.01120224 -0.006626116 -0.019065144 0.015959254 -0.00042879305 0.0793577 -0.030917035 -0.05919227
0.007876041 -0.4229495 0.2307349 0.047123667 -0.027528943 0.05400125 -0.14346582 -0.018274857
0.66475564 0.049200237 -0.05425815 0.04929973 0.017937787 -0.054612584 0.019866567 -0.115077116
0.002021829 -0.00015959785 0.41030395 0.0027766232 -0.06720467 0.014741251 -0.0008454301 0.15171584
0.03380294 0.09203872 0.02874503 -0.025186615 0.00047837495 0.06792126 -0.018359233 -0.032703824
00000000: 8c47 81bb 1da0 d53d 022f 733c 8174 3abd
00000010: a22f f1bc 51b0 1cbd f36d 53bd e368 b83c
00000020: 2f25 a6bd 6d75 a4bc 3224 d93d 1e02 a0bc
00000030: dd62 ab3d 2d18 93bd c762 1dbd 8caf 36bc
00000040: aa91 0d3d c428 8c3d 8a2f 97bd 90fe a73d
00000050: 3551 49bd c7d7 d4bd bcd2 633c 9707 6d3d
00000060: ac4d 09be 2197 dc3d 843e 353d 6444 273d
00000070: a0bd 3b3d f668 603d b9d3 89bd b2ed 61bc
00000080: 1f64 84bd 934a dd3c 70ec 483b c099 5e3d
00000090: f2db 8a3d 329d 80bb 4ee0 b9bd 17f8 9abc
000000a0: 47f4 25bc 86d2 d13d a4a1 02be f7bb 08be
000000b0: 33a3 11bd 4aab 65bd eae7 3dbc deb5 47bd
000000c0: 30af f7bc 253f 053e 4a50 b2bd 6b02 983c
000000d0: c5b8 33bd 748a 293e a4e1 a13b e6ac 19bd
000000e0: 89a4 d83d d411 bcbd 5942 96bd 5892 d6ba
000000f0: 5498 01bc 1cd8 e9bc d4b5 11bd 7101 153e
00000100: ede4 db3c ed8c 1e3d da78 5bba 1695 7e3c
00000110: 4506 7f3d fe4b 253d 6131 2abd 0dc9 a3bb
00000120: d508 043d 6d01 583d ba89 7f3d 601f 54bd
00000130: 336a 02be b8fa a6bd 176c 7b3d 658e 1f3d
00000140: a45c 82bd aa27 d1bc 15fb a6bd 9537 fbb8
00000150: f3cf 86bd ff1f 1c3c c7f1 ec3c 2aa4 c33c
00000160: b05e e1bc 6978 4c3d df61 113d 74a5 0fbd
00000170: cb20 723c 71a4 edbd 6ed2 3a3d 2ba5 f6bd
00000180: 8d51 92bd 64dd 72bc 94cc d13d 4987 b03d
00000190: 37b1 3f3c faff f93d 143c fdbc e24a 653d
000001a0: 1e38 13bd d86f 0bbd 8159 5fbc f20e 64bd
000001b0: dc6c df3c 6f15 493d a93a 40bd ebb5 a0bd
000001c0: 6b57 d33c 0c3d 43bb d56c 903c 6e6e e1bc
000001d0: df50 633b 1998 113d bbc4 b23d 26df 8e3d
000001e0: 35b9 883d 6875 173d 5067 48bd f5c6 223d
000001f0: f9fd 04bd a099 0cbd f9e1 23bb 2182 a5bc
00000200: 4721 4cbb 565c d6bd 86ad 8ebb a637 883c
00000210: 0387 b2bd b60e 2d3d f7d9 2fbc d604 1b3c
00000220: 4e6d 8e3b 31eb 7c3d 7cd0 813d 8feb 8f3d
00000230: 32c6 16bc 1b88 383d 4af7 18bc 0467 313c
00000240: 6c60 343c f205 80be 75a1 a03d c29b a63d
00000250: d840 f0bc b6b2 27be 1df0 d6bc 059a 17bd
00000260: 46c2 6c3e 00b0 dbbe 5bcb 023d a8e6 123d
00000270: 9d92 023d 49de a83c d407 10be 9864 eabd
00000280: 973e b7bb f5d3 9b3c 8a30 a43d 6f23 d03c
00000290: bc2a 18bd e44b da3d f3bc 463c c588 f43c
000002a0: f09f dcbe b71c 8d3e a2f2 f0bd 504c fabc
000002b0: a673 adbd 4764 22bd 1214 863d 0f87 1bbd
000002c0: b193 2b3d 9c07 173d 01c8 0ebc 857f 99bc
000002d0: 6db8 453e 7fab 773d e03c 1b3d 98ab 88bd
000002e0: 9d27 80bd 68aa 8ebd 6d2b 243d 73e8 793d
000002f0: c3ab 3d3d caae 97bd 4a90 a5bc bb49 f4bc
00000300: ae14 1fbd fd46 41be e97a 07bc 754b 8cbb
00000310: 8841 03bf 8ee0 923d b721 babc e719 583d
00000320: 6001 6b3c 60ee 03bd 3294 46bc a9c3 f9bd
00000330: 08d4 94bb 63c3 d3bc 2558 dfbe ef7b 8d3c
00000340: 32f5 9abe 58a9 673c a854 87bd 4422 973c
00000350: 8ede 333e ae8d 633d 4fb4 9bbd 0865 50be
00000360: 9a89 373c e41f d9bb 812e 9cbc fbbc 823c
00000370: a1cf e0b9 4a86 a23d b945 fdbc 9873 72bd
00000380: 830a 013c d68c d8be c545 6c3e bf04 413d
00000390: 6184 e1bc 6a30 5d3d b4e8 12be 27b5 95bc
000003a0: 6d2d 2a3f 3086 493d cb3d 5ebd 84ee 493d
000003b0: 44f2 923c 72b1 5fbd 36bf a23c 8dad ebbd
000003c0: a980 043b b959 27b9 5c13 d23e 02f8 353b
000003d0: 9aa2 89bd 4a85 713c db9f 5dba 665b 1b3e
000003e0: f474 0a3d cc7e bc3d b27a eb3c 2954 cebc
000003f0: 66ce fa39 4d1a 8b3d 1a66 96bc 72f4 05bd

bias f4 [64]
0.62107366 0.5353306 0.582853 0.9814407 0.7694909 -0.35342422 1.1203792 0.9284542
0.31813475 0.83189166 1.1622002 1.1028916 -0.94064355 -0.5217597 0.8553211 -0.63174486
1.0357786 -0.55758584 0.8292096 1.0215076 0.38521507 0.56087255 -0.5795634 -0.47059083
0.6677906 0.999087 -0.07352451 0.26931986 -0.36032033 1.6355957 -1.2153276 -0.84960186
0.7795483 0.72767 0.7886658 0.33429113 1.5752515 -0.2722882 -0.08451528 1.0291523
-0.22739798 0.6126656 0.013579701 0.8886031 -0.68997115 -0.42298728 -0.8474834 0.44300112
0.5004099 -1.0712837 -0.9632179 0.5971169 0.38006407 0.8566499 1.0620047 0.3286319
-1.058643 0.7292458 0.5778295 0.4141737 0.5558123 -1.1135201 0.87218064 0.019938419
00000000: affe 1e3f 6d0b 093f db35 153f b33f 7b3f
00000010: 5bfd 443f 05f4 b4be 9668 8f3f 2daf 6d3f
00000020: 8fe2 a23e daf6 543f fac2 943f 8d2b 8d3f
00000030: 04ce 70bf 0b92 05bf 53f6 5a3f 08ba 21bf
00000040: 6594 843f f2bd 0ebf 1547 543f c3c0 823f
00000050: e93a c53e 5895 0f3f 445e 14bf 48f1 f0be
00000060: 53f4 2a3f 2ac4 7f3f 0594 96bd 4be4 893e
00000070: e87b b8be 335b d13f db8f 9bbf 827f 59bf
00000080: 7a90 473f 9548 3a3f 00e6 493f 3528 ab3e
00000090: d7a1 c93f 5c69 8bbe 5916 adbd 43bb 833f
000000a0: 04db 68be a7d7 1c3f 657d 5e3c 7e7b 633f
000000b0: f3a1 30bf ca91 d8be acf4 58bf 0bd1 e23e
000000c0: dd1a 003f d31f 89bf 7395 76bf a7dc 183f
000000d0: c297 c23e 684d 5b3f c5ef 873f 7142 a83e
000000e0: 9d81 87bf daaf 3a3f a2ec 133f 930e d43e
000000f0: b749 0e3f d487 8ebf 3b47 5f3f e555 a33c

weight f4 [32, 70, 1]
0.35387862 1.4899049 1.5782031 1.4534043 1.446225 1.6043102 -0.0041500106 0.100312024
-0.050102603 -0.0550316 -0.0010799017 0.06734284 -0.053754795 0.00032853297 0.07720788 -0.016213398
0.00066860724 -0.103213996 0.055025104 0.099850886 0.09129423 0.08336651 -0.013604171 0.07643006
0.0792362 0.069957405 -0.10891082 0.006200662 -0.09591521 0.10968543 0.016277384 0.054619137
0.049730882 0.008801307 0.04185899 0.06614768 -0.028113091 0.042319726 -0.01058304 0.091881655
-0.029827438 -0.08747811 0.104500756 -0.03873984 0.06093533 0.0035586276 -0.0554777 -0.13226686
-0.0070943264 0.088935114 -0.08046059 -0.084001236 0.019078296 -0.057205748 -0.015135052 0.111656934
-0.03525276 0.03446368 0.088348724 -0.051796753 -0.100790106 -0.11261786 0.0284219 0.08611492
-0.016614057 -0.14016299 -0.018432189 0.046936013 -0.02446983 0.062306203 -0.4526112 -1.4827713
-1.502163 -1.5858383 -1.5424817 -1.4819155 -0.026024118 0.026184166 -0.03643323 0.036253575
-0.08357288 -0.07278785 -0.016712392 0.019016616 -0.10998378 -0.066781774 -0.0946324 -0.03425049
0.09315442 -0.058735766 0.057196423 0.07050895 -0.015299181 0.10553422 -0.026283981 0.08108523
0.01520594 -0.017648509 -0.03565631 -0.03847956 0.08806549 -0.10381602 -0.06713725 0.05382673
0.079204276 -0.02536057 0.01525474 0.03954205 0.013013736 0.02896833 0.11191083 0.061373014
-0.028296169 -0.046508785 -0.024483515 -0.11347165 0.0041720583 0.12743655 -0.0896579 0.060422596
-0.052073143 -0.045649268 0.05686921 -0.017020166 -0.0036633904 -0.07305596 -0.011528491 0.052893415
-0.08014121 0.14256562 -0.0108079715 0.123277836 -0.08884606 -0.0019263036 -0.07999467 -0.05702774
-0.039862484 0.0056610494 -0.09505067 0.045245465 0.19576049 1.2821009 1.2541094 1.375166
1.2355742 1.2787881 -0.020833325 0.005453102 -0.061464444 0.014179702 0.069913 -0.026041055
-0.10957847 -0.00912459 0.050429676 -0.039524406 0.06566684 0.021745965 -0.017902616 0.094038345
0.09715001 -0.07819837 -0.016491484 -0.09296842 0.028787388 -0.028435852 -0.044740256 0.123779066
-0.07839346 -0.04719443 -0.015066783 -0.050876748 -0.006378706 0.10144638 0.10499464 0.031504646
-0.03823224 0.022524066 -0.010517047 -0.09072365 0.0014980983 0.034127265 0.085623115 -0.10074699
-0.11461957 0.02614543 -0.006297223 -0.09856094 -0.053749315 0.06919431 -0.07592288 0.016040506
-0.07283503 0.008722714 0.07439289 -0.031572044 -0.044330634 -0.057944868 0.0012845031 0.08699462
-0.09328214 0.0017414646 -0.008717724 0.00043134185 0.06682242 -0.102067344 0.035025414 -0.076020256
-0.016868107 -0.11152596 0.15371203 1.3427209 1.4267865 1.4206561 1.3945885 1.2775853
0.004908681 0.065398596 -0.064062916 0.029670108 -0.0010355894 0.03355883 -0.09910159 -0.057837725
0.083648376 -0.057599295 0.0047822515 -0.016703753 0.12672766 -0.030802729 -0.07196883 0.1216011
0.09537437 0.051742196 0.09781463 0.08359314 -0.02144892 0.07026748 0.07420084 0.091057085
0.08825899 -0.0075656567 0.08728689 -0.08611032 -0.003654638 0.05171419 0.0823131 0.086957894
0.027498439 -0.025439547 0.026535064 0.06668269 -0.025576875 -0.062180936 -0.08617525 0.10848771
00000000: 942f b53e 34b5 be3f 8f02 ca3f 2709 ba3f
00000010: e71d b93f 095a cd3f d0fc 87bb 6470 cd3d
00000020: 6338 4dbd d168 61bd 7d8b 8dba 0beb 893d
00000030: fd2d 5cbd f33e ac39 2a1f 9e3d f6d1 84bc
00000040: 7945 2f3a dc61 d3bd 0162 613d 9f7e cc3d
00000050: 78f8 ba3d 10bc aa3d 07e4 5ebc 5d87 9c3d
00000060: 9746 a23d d445 8f3d a30c dfbd ec2e cb3b
00000070: 326f c4bd c1a2 e03d 2658 853c 51b8 5f3d
00000080: 9cb2 4b3d 5b33 103c 5574 2b3d 6f78 873d
00000090: 6d4d e6bc 7357 2d3d 7d64 2dbc 732c bc3d
000000a0: ac58 f4bc b927 b3bd 7e04 d63d abad 1ebd
000000b0: 5397 793d dd37 693b 963c 63bd f770 07be
000000c0: 8677 e8bb 9d23 b63d 86c8 a4bd d708 acbd
000000d0: 164a 9c3c 9350 6abd 02f9 77bc 64ac e43d
000000e0: 3365 10bd ca29 0d3d 2df0 b43d d528 54bd
000000f0: 0b6b cebd 31a4 e6bd 0bd5 e83c 055d b03d
00000100: 341a 88bc e386 0fbe 1aff 96bc fa3f 403d
00000110: f474 c8bc ca34 7f3d a8bc e7be 73cb bdbf
00000120: e146 c0bf c0fc cabf 0a70 c5bf 68af bdbf
00000130: 8830 d5bc 2d80 d63c 033b 15bd a17e 143d
00000140: 4228 abbd cc11 95bd 6de8 88bc bcc8 9b3c
00000150: 2d3f e1bd e2c4 88bd a2ce c1bd 3e4a 0cbd
00000160: bfc7 be3d ea94 70bd cc46 6a3d ff66 903d
00000170: 6ba9 7abc 5322 d83d 8151 d7bc 0310 a63d
00000180: 5622 793c 9b93 90bc 5a0c 12bd be9c 1dbd
00000190: ae5b b43d 7e9d d4bd 417f 89bd 6b79 5c3d
000001a0: da35 a23d f8c0 cfbc 04ef 793c d8f6 213d
000001b0: 9137 553c fe4e ed3c 8131 e53d 4562 7b3d
000001c0: 5ecd e7bc ff7f 3ebd a791 c8bc d363 e8bd
000001d0: c3b5 883b ba7e 023e 909e b7bd af7d 773d
000001e0: a64a 55bd bafa 3abd b0ef 683d e06d 8bbc
000001f0: 7e15 70bb 5d9e 95bd ffe1 3cbc c4a6 583d
00000200: 1321 a4bd b9fc 113e eb13 31bc 1779 fc3d
00000210: ecf4 b5bd 067c fcba 3fd4 a3bd eb95 69bd
00000220: d846 23bd 5380 b93b eda9 c2bd 4f53 393d
00000230: 7075 483e e21b a43f a886 a03f 7105 b03f
00000240: 4c27 9e3f 54af a33f a6aa aabc efaf b23b
00000250: 24c2 7bbd fb51 683c 8c2e 8f3d 0d54 d5bc
00000260: ad6a e0bd 4e7f 15bc 598f 4e3d 58e4 21bd
00000270: 567c 863d 9824 b23c 82a8 92bc 2d97 c03d
00000280: 96f6 c63d 7826 a0bd 2619 87bc 3a66 bebd
00000290: 87d3 eb3c 4ef2 e8bc 8f41 37bd e17f fd3d
000002a0: c08c a0bd f24e 41bd abda 76bc 2364 50bd
000002b0: 7704 d1bb 1fc3 cf3d 6e07 d73d 040b 013d
000002c0: 6999 1cbd 6484 b83c b14f 2cbc 52cd b9bd
000002d0: d65b c43a 08c9 0b3d 2c5b af3d 7054 cebd
000002e0: aabd eabd f12e d63c ef58 cebb 51da c9bd
000002f0: 3e28 5cbd bfb5 8d3d 747d 9bbd 6167 833c
00000300: 882a 95bd b7e9 0e3c 4d5b 983d b051 01bd
00000310: 0a94 35bd 9957 6dbd c65c a83a 3c2a b23d
00000320: b50a bfbd db41 e43a c9d4 0ebc b925 e239
00000330: 31da 883d af08 d1bd cf76 0f3d 82b0 9bbd
00000340: fc2e 8abc b967 e4bd b066 1d3e 47de ab3f
00000350: f1a0 b63f 0fd8 b53f e081 b23f ea87 a33f
00000360: 00d9 a03b b3ef 853d 6b33 83bd ba0e f33c
00000370: 9dbc 87ba fc74 093d c6f5 cabd 40e7 6cbd
00000380: d74f ab3d 3ded 6bbd 6fb4 9c3b 4fd6 88bc
00000390: e5c4 013e 0156 fcbc 6564 93bd ff09 f93d
000003a0: a353 c33d a0ef 533d 0953 c83d e132 ab3d
000003b0: a5b5 afbc 66e8 8f3d 9cf6 973d 237c ba3d
000003c0: 21c1 b43d 54e9 f7bb 78c3 b23d 9c5a b0bd
000003d0: a782 6fbb 42d2 533d c593 a83d fb16 b23d
000003e0: 6844 e13c 9966 d0bc 1060 d93c ef90 883d
000003f0: 9886 d1bc 70b1 7ebd a67c b0bd ce2e de3d

bias f4 [32]
1.4869707 -1.482951 1.4113668 1.3328302 1.2585257 1.6732187 1.3800528 1.3976084
-1.1434386 1.4118103 1.2886038 1.3663611 -1.3186958 1.3594915 -1.4531966 1.4824046
-1.5377843 1.3869488 1.209557 1.3150277 1.3117642 1.4155844 -1.1026415 1.3780208
1.353952 -1.2680179 1.602145 1.4004213 -1.3204515 -1.4372222 1.3545324 -1.1884294
00000000: 0e55 be3f 57d1 bdbf aba7 b43f 2e9a aa3f
00000010: 5f17 a13f 082c d63f 92a5 b03f d5e4 b23f
00000020: 325c 92bf 33b6 b43f f8f0 a43f ece4 ae3f
00000030: 06cb a8bf d103 ae3f 5902 babf 6fbf bd3f
00000040: 1ed6 c4bf 8a87 b13f c4d2 9a3f d452 a83f
00000050: e4e7 a73f df31 b53f 5b23 8dbf fc62 b03f
00000060: 4d4e ad3f 694e a2bf 1613 cd3f 0141 b33f
00000070: 8e04 a9bf e6f6 b7bf 5161 ad3f 741e 98bf

weight f4 [1, 32, 1]
0.2836826 -0.26368305 0.3504164 0.29862145 0.34348232 0.6483375 0.37501174 0.5658069
-0.38871214 0.3776988 0.3161298 0.3220478 -0.85200655 0.31627434 -0.41247827 0.37086803
-0.4450047 0.23270173 0.39256108 0.30559498 0.3404117 0.4478184 -0.51060426 0.35296503
0.29747146 -0.26125002 0.43366233 0.39269873 -0.32812035 -0.4265051 0.3681396 -0.3666398
00000000: d93e 913e 7701 87be c769 b33e e9e4 983e
00000010: eadc af3e 72f9 253f 8a01 c03e b9d8 103f
00000020: 4705 c7be bd61 c13e c4db a13e 73e3 a43e
00000030: 1a1d 5abf b6ee a13e 5a30 d3be 6ae2 bd3e
00000040: a8d7 e3be 5d49 6e3e c4fd c83e f276 9c3e
00000050: 714a ae3e 7448 e53e f6b6 02bf d5b7 b43e
00000060: 2e4e 983e 90c2 85be fd08 de3e cf0f c93e
00000070: 64ff a7be e05e dabe cb7c bc3e 36b8 bbbe
